model.xauusd.H1.120.onnx (onnx, 905701 bytes, 9 tensors)

sequential/dense/MatMul/ReadVariableOp:0 f4 [100, 1]
00000000: 019f 183e 6db1 04be ffd2 143e 1059 0d3e
00000010: 0c8d 033e 9c93 1dbe 87ed 1dbe de6e 09be
00000020: ea5d afbd 2f12 1c3e 4e90 103e 2441 1f3e
00000030: e41f 0e3e 8cfe 1a3e e864 153e 5995 2d3e
00000040: efe0 10be eb6f 24be 5e6a 12be 4be1 0cbe
00000050: 5569 28be 064f 2cbe c2df efbd aba8 a3bd
00000060: be32 503e 7004 2bbe e8e6 34be c75e 0c3e
00000070: c45a 243e 06d6 173e 1ac1 4cbe 05e6 15be
00000080: 8398 1dbe eafd 0f3e fb8c 47be 608f 0f3e
00000090: dc6d 033e 4000 4b3e e8f1 153e 3908 12be
000000a0: 487b 223e f5ae 3abe 4655 e3bd 9441 1f3e
000000b0: 7dd1 3dbe 36c1 04be d27e 233e bf59 453e
000000c0: 53c9 2cbe f5af fb3d 0e34 31be 9f1f 42be
000000d0: 4d6f 14be d3c9 04be 956e fc3d 4130 1b3e
000000e0: 6f2f 0b3e 25ae e93d cd7f 173e 5f4b 103e
000000f0: f3a9 1d3e 1016 1dbe b316 fb3d d705 323e
00000100: 27d4 193e 3824 233e facf 243e 0374 183e
00000110: 131a 2bbe 6976 1f3e e28b 08be 1d4c 1bbe
00000120: a258 253e 5dfc 14be 2723 2dbe b736 273e
00000130: 524d 1bbe 9944 123e 3d31 103e 2259 18be
00000140: 26d1 fb3d 0af9 ed3d f4ee 123e 3151 2c3e
00000150: 0268 31be cdb7 0dbe 72a3 13be ee9f 2ebe
00000160: 6467 3f3e ee36 0fbe 4ad4 15be 05e9 08be
00000170: d01a f3bd 5c5f de3d b6d6 35be 2b8e 003e
00000180: 8725 28be 820e 98bd c1ef 0abe 72c1 1d3e
0.14904405 -0.12958308 0.14533614 0.13803506 0.12846774 -0.1538834 -0.1542264 -0.13421199
-0.085628346 0.15241311 0.14117548 0.15552193 0.13879353 0.15136164 0.14589274 0.16951503
-0.14148305 -0.16058318 -0.14298388 -0.13757817 -0.16446431 -0.1682702 -0.117126 -0.07991155
0.20331857 -0.16700912 -0.17666209 0.1370803 0.1605025 0.14827737 -0.19995537 -0.14638527
-0.1539021 0.14061704 -0.19487374 0.14019537 0.12834877 0.19824314 0.14643061 -0.14260949
0.1586734 -0.18230803 -0.11100249 0.1555236 -0.18536945 -0.12964329 0.15966347 0.19272517
-0.16873674 0.122894205 -0.17305014 -0.18957375 -0.14495583 -0.12967615 0.12325779 0.15155126
0.13592313 0.114101686 0.14794846 0.14091252 0.15396862 -0.15340447 0.12260189 0.1738504
0.15022336 0.15931785 0.16094962 0.14888005 -0.16709165 0.15572514 -0.13334611 -0.15165754
0.16147092 -0.14549394 -0.16907941 0.16329466 -0.15166214 0.1428398 0.14081283 -0.14877751
0.12295751 0.11619766 0.14348966 0.16827847 -0.17324832 -0.13839646 -0.14417818 -0.17053196
0.18691784 -0.13985798 -0.14631763 -0.1337014 -0.118703485 0.10858032 -0.17757687 0.12554233
-0.16420566 -0.07424642 -0.13568021 0.15405825

sequential/conv1d/Conv1D/ExpandDims_1:0 f4 [256, 1, 1, 2]
00000000: f3d3 5cbd 4556 dd3b 508c 6abd 8f4a fe3d
00000010: 847d 3abd a03a eabb 8ce7 0ebd 30ae 8cbb
00000020: 10c6 60bc 20a1 8cbc 725f aabd 3c54 23bd
00000030: cf82 0fbd 9687 c53c 7d71 60bd 6671 3b3e
00000040: ff3c ad3d d91e ef3d 8b1e 183d 7e90 00be
00000050: 588d a5bc b81d 93bd 4dac 433e 0785 40be
00000060: 6192 a63c f962 d0bd c3b3 103d 5dec 0dbe
00000070: 05b1 003c 2df2 cb3b 18df 8ebd bbc2 b4bd
00000080: 5537 063e 686b 01be 7471 4dbd 2c79 22bd
00000090: 435e ccbd 11b7 c83c 8c2b b2bc 029f 3ebd
000000a0: 06c5 713d 3567 3ebd b73d c13c 985f d33d
000000b0: 0848 79bd 88bf 88bd fd1d f83d 749e 00bd
000000c0: 08b9 9fbd c34d aa3b 8784 93bb 0b42 f2bd
000000d0: 48b3 333e ceab bebd cc21 0f3e 38cc 7abd
000000e0: 3764 cf3d 060f da3d dfcf a5bd be67 3ebd
000000f0: 9b10 dd3d 372b 043e 9436 36bb 20fc 9dbd
00000100: b442 6dbd 7764 b83c e27c a53c ce76 87bd
00000110: 57ac 313e 91c7 1bbe 2a96 213d fe5a 04be
00000120: 313f e7bc eaf7 373e c8d5 b7bd 0683 bcbd
00000130: bb84 c43d 729d ddbb 1450 f0bc 414f 48bd
00000140: acea 2f3c eec9 dfbd 9f54 793c f7b9 d83d
00000150: 5f1a a4ba 3079 213e c78e 54bd 00a9 bcbd
00000160: c67e 243e b967 26be f8ef 1abc a0b1 a4bd
00000170: 3ed4 87bc 7041 ef3d 1046 f9bd b74a 53bc
00000180: f593 293c 1e23 3a3d b0b7 34bd a03d e6bb
00000190: 803d 803b fffe 8abc 75c3 e3bc 9968 8d3a
000001a0: 9b6b 63bd 70ce 303d cc35 a3bc 81cd 5f3c
000001b0: 8fdb dbbd d5ff 8a3c 9acb 60bd 5859 79bd
000001c0: c01e 9fbc bfcf 85bd 4f81 133d 1e8b e33c
000001d0: a7eb db3d e77d a0ba a7ef 70bd b005 9bbb
000001e0: f805 aebc a98a cebd 6086 36bd a636 c4bd
000001f0: 881b 53bc c82b 1cbc aef3 02bd acc0 9ebc
00000200: df84 49bd 9a3f 373e 4852 24bc 442c 9cbc
00000210: 2343 953d d35b db3d 5c1e 99bd 711c 243d
00000220: a6eb db3d 640d ecbb ac4c c23d cd0e 013e
00000230: 18f9 953d fc5b d63d bb62 bebd 4871 0ebc
00000240: e518 5d3d 84ca d83c 7d81 d4bd 9125 a33d
00000250: 8fde 53bd 5346 bb3c 280c cb3d 88cb 36bc
00000260: 9d0e 74bc ca33 c93d 82ab 263e c5c4 26be
00000270: c83e 1fbb a8ee 353e 1563 32bd b21b 033e
00000280: 71d7 8ebd 7942 463d ec6e 91bc 6d82 df3b
00000290: fd40 4a3d 0479 91bd 6a5d 3e3d 8094 f8bd
000002a0: 6ff6 9fbd c589 fabb 6d23 203e c330 1bbe
000002b0: d1ee 9e3d e7ff 8b3d c7ad d53d ccc9 2a3e
000002c0: 0742 d8bd 8658 203d 1851 2fbd 5d4a f93b
000002d0: 37da 7cbd bfde c53d 9238 203e f676 ddbb
000002e0: 2ae5 f93d 9583 f6bd f5ea d6bd a3ee 983d
000002f0: 829e 87bd 1417 dfbc f370 363e 3858 39be
00000300: 0a2e af3d cb4d f83d 3e30 c5be d5d7 8ebe
00000310: 7766 1abd f31e 153e d2f7 a9bd 9419 e8bc
00000320: e83e 14bd bcbb 2bbd 08ff 21bd 343a 60bd
00000330: 09da dbbd a698 093c 1bfd c8bc f58f b0bd
00000340: 6c98 8cbd 3808 11bc 6a65 49bd 7f14 b63d
00000350: b99f fd3d f0ae fabd c6d7 b9bd e178 883d
00000360: 3286 803c b0af f8bd 3f96 403e a828 d1bd
00000370: 10d0 333d d57c f43d 02f4 9abd a8cb 99be
00000380: a005 b6bb 1c5a 1c3d bb76 f9bc 5c96 453d
00000390: 5a27 223e 4ec6 1dbe 5b46 b6bc 127a b83d
000003a0: d3e0 b43d 77d9 8d3d b059 77bc 27d8 9fbd
000003b0: 94cc 373c 66ae d83d 6d5f 6f3d 1ba6 cb3b
000003c0: 3cdc a7bc b836 f4bc 3842 3f3e efa6 1fbc
000003d0: 6339 1abc 3daa 563d fcfd cc3d 66ec babd
000003e0: ed9d 75bd 88be 56bc d273 b53d 2db5 863d
000003f0: fd0e 1b3e 1dab 23be 96ac cdbc 2572 1e3e
-0.053913068 0.006754669 -0.05726272 0.12416565 -0.045529857 -0.007148102 -0.03488879 -0.0042932257
-0.013719097 -0.017166674 -0.08318986 -0.039875254 -0.03503686 0.024112504 -0.05479573 0.18304977
0.084589 0.116758056 0.037138503 -0.1255512 -0.020209 -0.07183403 0.19108696 -0.18800746
0.02033347 -0.101751275 0.035327684 -0.13859697 0.007854705 0.006223938 -0.069761455 -0.088262044
0.13107045 -0.12638628 -0.050157025 -0.03966634 -0.099789165 0.024501355 -0.02174928 -0.04653836
0.059025787 -0.046485145 0.023588998 0.103209674 -0.06085971 -0.06677157 0.12115095 -0.031401113
-0.07798964 0.005197258 -0.0045018825 -0.11829003 0.17548859 -0.09310113 0.13977736 -0.061229914
0.10126536 0.10647397 -0.08096289 -0.046485655 0.10794183 0.1290711 -0.0027803527 -0.07714105
-0.05792494 0.022508843 0.02020115 -0.06614457 0.17350899 -0.15212847 0.03944985 -0.12925336
-0.028228374 0.17965665 -0.089763224 -0.09204678 0.09595629 -0.0067631537 -0.02933506 -0.048903707
0.0107371025 -0.10927187 0.015217929 0.10582345 -0.0012520066 0.15768886 -0.051893976 -0.09211922
0.16063985 -0.16250505 -0.009456627 -0.08041692 -0.016580697 0.11682403 -0.121715665 -0.012896231
0.010350217 0.045443647 -0.04412049 -0.0070263892 0.0039135814 -0.016967295 -0.027803162 0.0010788619
-0.055522542 0.043165624 -0.019923113 0.013659836 -0.10735237 0.016967693 -0.05488167 -0.06087622
-0.019423842 -0.06533765 0.03601199 0.027776297 0.107383065 -0.0012244553 -0.0588223 -0.0047309026
-0.02124308 -0.10085041 -0.044561744 -0.09580736 -0.012884982 -0.009531923 -0.031970672 -0.019378982
-0.04919898 0.17895356 -0.010029383 -0.019064076 0.07288196 0.107108735 -0.07476494 0.040066186
0.10738306 -0.0072037447 0.0948728 0.12603302 0.073229015 0.104667634 -0.09296175 -0.008694001
0.05397882 0.026463754 -0.103762604 0.079661496 -0.05172592 0.022860682 0.09914428 -0.011156924
-0.014896062 0.09824331 0.16276363 -0.16285999 -0.0024298895 0.17766821 -0.043551523 0.12803534
-0.06974686 0.048403237 -0.017753087 0.006820968 0.049378384 -0.0710316 0.046475805 -0.12137699
-0.07810675 -0.007645818 0.15638514 -0.1515532 0.07760394 0.06835919 0.10433536 0.16678542
-0.10559469 0.039146923 -0.042801946 0.0076077417 -0.061731543 0.09661626 0.1564658 -0.006758566
0.12201913 -0.12036816 -0.10494033 0.07467391 -0.0662203 -0.027232684 0.17816524 -0.18100059
0.08553703 0.12124213 -0.38513368 -0.27899042 -0.037695374 0.14562587 -0.08299221 -0.02833251
-0.036192805 -0.041927084 -0.039549857 -0.054743007 -0.10734946 0.008398211 -0.024534753 -0.086212076
-0.0686501 -0.008852057 -0.04916898 0.08890628 0.1238398 -0.12240398 -0.09074359 0.06663681
0.01568899 -0.12142885 0.18807314 -0.10212833 0.043899596 0.11937872 -0.07566072 -0.3003819
-0.00555487 0.038171872 -0.030452123 0.048239097 0.15835324 -0.15407678 -0.022250345 0.09007658
0.08831944 0.06926244 -0.015097067 -0.078049 0.011218209 0.10580139 0.058440614 0.0062148697
-0.020490758 -0.029811248 0.18677604 -0.00974439 -0.009413096 0.052408446 0.10009381 -0.09127121
-0.059965063 -0.01310695 0.088599816 0.06577525 0.15142436 -0.15983243 -0.02510671 0.1547323

const_fold_opt__317 f4 [1, 256, 1]
00000000: 923a fdb9 d058 e8bb 0000 0000 0000 0000
00000010: 0000 0000 0000 0000 e712 c6bb f156 56bc
00000020: 2ba8 b6bc 46a4 593d 0000 0000 a479 a6bc
00000030: 1544 643d ce74 a63c d811 81bc 0000 0000
00000040: 3c54 6cbc 0000 0000 3692 d93a 0000 0000
00000050: 3b2e 0fbd b0fc 74bc 0000 0000 6e1f 91bc
00000060: ca16 983a 022b e13d aecf a6bc e1db b5bd
00000070: b466 ccbc 0000 0000 9700 e5bc 68b7 943d
00000080: e4cb d93a a819 a9bc fae0 9fbc 0042 6a3c
00000090: d652 7dbc 0000 0000 a1fd 49bd 0000 0000
000000a0: 9326 273d 68e6 5bbc a032 88bc 0000 0000
000000b0: 34a6 8dbc 0000 0000 585d 3bbc 54e5 cc3c
000000c0: bb1c e7bc 0000 0000 1d4f 9ebb f42f 033b
000000d0: 52f9 7db9 d5ab 2839 f581 87ba 0000 0000
000000e0: 60c6 0c3c 33fa b1bc 2a93 8dbd 0000 0000
000000f0: 0000 0000 0000 0000 0000 0000 0000 0000
00000100: 12dc a4bd 0000 0000 d0e4 bfbd b20b 88b8
00000110: fe02 56bd 62cd c6bc 8a98 e1bd 0000 0000
00000120: 66b6 5dbd 6eca e9bb c40c c5b8 31e6 66bd
00000130: 4f9f 2fbc 1e90 95bc 2d1f debd 6159 24bc
00000140: 6f4a d0bb 5678 bcbb 3f60 05bd c9ff 833d
00000150: 401a 773c 1292 88bc b25c b9bd 369e f1bc
00000160: f30e 6eba c72d beb8 522e 22bc 9631 f3bd
00000170: d7c3 69bc ee8a 253a 0000 0000 69de 99bc
00000180: 1aef c5bc 0729 e13d 03c5 5bbc 0000 0000
00000190: 0000 0000 0000 0000 4d2c af3a 47ed cb3d
000001a0: 0000 0000 cf7a 2abd 98ff 5ebc bfe0 debb
000001b0: be15 3a3d 9167 a9bc afd3 8dbc 7380 f73d
000001c0: 5821 08bd 01ce 96bc 62b9 8bbc 91aa 07bc
000001d0: 3c2e 98bc 0000 0000 5185 98bd 28a1 01bd
000001e0: 0000 0000 af18 bbbd a25a 32bd 0f21 16bd
000001f0: 0000 0000 a35d 9abc cc36 86bc b88d 57bc
00000200: 0000 0000 8c7b 0fbe 7124 00be e72c 753d
00000210: ba02 283d c20e cfbc 9efe 3bbc 0000 0000
00000220: a48d f4bc 2d93 70bc 02b2 43bc 9452 4f3d
00000230: 2d78 8ebc 0000 0000 0000 0000 804c 95ba
00000240: 42ec 66bd d87b 99bd 0000 0000 a9f0 8abc
00000250: dee0 9abd 4f29 9cbd 0000 0000 a758 b9bc
00000260: 0000 0000 ec90 73bc 0000 0000 0000 0000
00000270: 4f39 92bc 3b04 afbc a949 4ebc 7131 b1bc
00000280: 0000 0000 0000 0000 0000 0000 539c 09bc
00000290: b675 d3bc 0000 0000 0000 0000 8684 8abc
000002a0: 7e32 a83d d9ac 24bc fc87 0cbc 5619 ffba
000002b0: 9a48 853d 0000 0000 33c3 38bd 65d4 98bd
000002c0: 58a6 59bc 6ecb 93bc 3784 783d eade adbc
000002d0: 7498 b53d b30a 5abc 8849 71bc 0a36 00bc
000002e0: 323c 52bc 056b 85bc 0000 0000 0000 0000
000002f0: 4ff8 8abc cb0e 01bd c0e0 cbbd 3b37 0cbd
00000300: 0000 0000 0000 0000 8312 1fbc ef9e c83c
00000310: 0000 0000 7470 67bd a9c4 46b9 0ef5 eab9
00000320: 732e 293a b4d4 f7bd 3e9c 76bd 7c74 553d
00000330: cbfb 9abc c35f 77bd 5257 11bc 0000 0000
00000340: e863 5aba 68bf 9c3c 4c4c c4bc 8d89 09bc
00000350: 8432 e0bb 8bd1 23bd 0000 0000 cf8c 53bc
00000360: fd20 d33d 640b e0bb 6d7b 7abc 0000 0000
00000370: 5e6f aebd 65ee 70bc 0000 0000 2dc1 35bd
00000380: 2b02 bcbd 0000 0000 0000 0000 37c3 c5bc
00000390: 310e 3bbc 2b07 4fba 387a 7bbd 44ca 21be
000003a0: 9533 bbbb 0000 0000 4f87 8abd 3bd4 ccbc
000003b0: e5c6 ec39 00ea 4ebc 82f0 65bb c8b6 d93d
000003c0: 0bdc 79bc dd5e fdbc 7948 95bc 6e33 0dbd
000003d0: 14fe b3ba 017a b4bc b58b a5bc 0000 0000
000003e0: 2350 8db9 0000 0000 5824 b736 1c5c 48bd
000003f0: bea6 9ebb cca6 e4bd c4c5 16bb 4d47 3bbc
-0.0004829956 -0.0070906654 0.0 0.0 0.0 0.0 -0.006044734 -0.013082252
-0.022296986 0.05313518 0.0 -0.020321675 0.05572899 0.020319369 -0.015755579 0.0
-0.01442438 0.0 0.001659936 0.0 -0.0349562 -0.0149528235 0.0 -0.017715182
0.0011603471 0.10994531 -0.020362701 -0.08879829 -0.024951316 0.0 -0.027954383 0.072615445
0.001661655 -0.020642117 -0.019516457 0.014297962 -0.015461644 0.0 -0.049314145 0.0
0.04080827 -0.013421632 -0.016625702 0.0 -0.017291166 0.0 -0.011435829 0.025011696
-0.028211942 0.0 -0.0048312084 0.0020017596 -0.00024220839 0.00016085741 -0.0010338413 0.0
0.008592218 -0.02172575 -0.06912835 0.0 0.0 0.0 0.0 0.0
-0.080497876 0.0 -0.093698144 -6.487164e-05 -0.052248947 -0.024267856 -0.11015423 0.0
-0.054129027 -0.007134727 -9.39607e-05 -0.05637187 -0.0107191345 -0.018257197 -0.1084579 -0.010031075
-0.0063565294 -0.00575165 -0.03256249 0.064452715 0.015081942 -0.016671214 -0.09050883 -0.029494386
-0.0009081207 -9.068433e-05 -0.009898739 -0.11874692 -0.014267883 0.00063149526 0.0 -0.018782811
-0.024161864 0.109941535 -0.0134136705 0.0 0.0 0.0 0.0013364643 0.099573664
0.0 -0.041621026 -0.013610743 -0.006801694 0.04543089 -0.020679267 -0.017312853 0.120850466
-0.033234924 -0.018408777 -0.01705617 -0.008280412 -0.018576734 0.0 -0.07447303 -0.03164783
0.0 -0.091355674 -0.043543465 -0.03665262 0.0 -0.018843478 -0.016383551 -0.013156347
0.0 -0.14011973 -0.12513901 0.059857275 0.041018225 -0.025275592 -0.01147428 0.0
-0.029852696 -0.014683527 -0.011944296 0.050615862 -0.017391289 0.0 0.0 -0.0011390597
-0.056377657 -0.074943244 0.0 -0.016960459 -0.07562421 -0.076250665 0.0 -0.02262528
0.0 -0.014866095 0.0 0.0 -0.017849592 -0.021364322 -0.012590804 -0.02163002
0.0 0.0 0.0 -0.008399087 -0.025812965 0.0 0.0 -0.016908895
0.082127556 -0.010050976 -0.008577343 -0.0019462507 0.06507988 0.0 -0.04510803 -0.07462386
-0.013284288 -0.018041339 0.060672965 -0.021224458 0.08866969 -0.013308215 -0.014727004 -0.007825384
-0.0128317345 -0.016286382 0.0 0.0 -0.016964106 -0.03150825 -0.09954977 -0.03423236
0.0 0.0 -0.009709003 0.024489848 0.0 -0.056503728 -0.00018956013 -0.00044814538
0.000645376 -0.12101117 -0.060207598 0.05211304 -0.018918892 -0.06039406 -0.008870916 0.0
-0.0008330927 0.019134238 -0.023962162 -0.008394611 -0.0068419594 -0.039994758 0.0 -0.012911989
0.103090264 -0.0068372954 -0.015288216 0.0 -0.08517335 -0.014705275 0.0 -0.04437368
-0.09180101 0.0 0.0 -0.024140937 -0.011416958 -0.00078974915 -0.061395854 -0.15799814
-0.005712936 0.0 -0.06764089 -0.025003543 0.00045161616 -0.012629032 -0.003508598 0.10630566
-0.015250216 -0.030929023 -0.018223034 -0.034472875 -0.0013732337 -0.022030832 -0.020208219 0.0
-0.00026953322 0.0 5.458056e-06 -0.048915967 -0.0048416546 -0.111646265 -0.002300606 -0.011430574

W0__222 f4 [1, 400, 100]
00000000: fb42 6d3c 3ceb 0b3e d53f b8bd 0a30 a5bd
00000010: fa2b 65be 0ae0 da3c f00d 9f3d b8a1 14bd
00000020: d72c 17be e0ab 0c3c f362 1a3d f31c 98bb
00000030: 4d1a 093e 440c e8bc 21bc 2b3c 0e63 bf3d
00000040: 3efa 99bc cca6 4ebd f86a 5d3c b60b 383e
00000050: 7812 a53c 3786 cbbc 2a7c bcbd b24b 63bd
00000060: edd4 873c bfec 2b3d 44ce febd a430 123e
00000070: 1093 c33d 9401 61bd ad2a 0c3d 4a49 223e
00000080: 34c4 2d3d 983e 12bc c2bf 333e 9635 bcbc
00000090: 450d 353e 5354 073e bf1c 06bd 7065 5d3a
000000a0: 9ffe f83d f863 e4bc a2b1 e4ba b597 6a3e
000000b0: f424 d0bc 53aa 393d 9f9e 16bc d252 f0bd
000000c0: 42b9 123d 7d84 f9bd b623 13be fe86 063b
000000d0: 18da 5a3d f95b 63bd 6935 7a3d c5d2 313c
000000e0: 490e 77be 4040 883c cb12 1e3d 9a0d dc3d
000000f0: a83c 8a3d b7ce 3bbd 6a58 4fbc 25da b03d
00000100: d485 973e f721 01be edb2 ad3d 50b7 ab3d
00000110: f00a 30be 282c a13d df7a 3dbe 186a 7e3d
00000120: 701b e6bd 24f4 12be 28fc 53bd 1186 2c3b
00000130: fd9b 883d f4b5 363e 7924 fb3c 2014 15be
00000140: ebe4 df3c f75f 80bc 2720 8abd 262d 673d
00000150: b94c 67bd a03d d7bd a0c0 213d 8118 393e
00000160: c814 07bb 4f69 43be 0c98 2e3e 6e78 93bd
00000170: a34a 5fbd 6b69 e83d 543b bebc ae13 52be
00000180: c074 413d 1f1a fabc 436d 0bbd 667b 72bd
00000190: 08de cdbd fcbc 1abd b603 61bd 926c e2bc
000001a0: 77d4 10bc 238a 38bd a786 26bd 26f0 ea3d
000001b0: 5982 5f3d 9d7a f4bd d7ed 47bd a402 6abd
000001c0: 4525 d03b 4522 883d 80d9 4a3e fc3f f3bd
000001d0: ce21 d9bc d314 ab3d b0d9 1f3e 8b9b ad3d
000001e0: 5679 e9bd 9794 30bd 23f6 74bd f7a9 473c
000001f0: 3133 b03d c45d 753d 9230 413d efdd b33d
00000200: 8a94 533d 96b0 03be 3ccc 493b 7478 e03c
00000210: d27c f1bc 8995 943d 7ab9 27bc 9bd5 dbbc
00000220: 7651 e83b bc46 6fbd 7d18 22bd edd9 14bd
00000230: e8d1 933d 8ed2 d23c faf2 203c 17c9 f83c
00000240: 68c3 e1bc 18b3 673d 8a30 b7bd cfb2 38be
00000250: e71d b53c 6407 8bbc 1d35 6e3d 9ba4 9c3d
00000260: 5c62 f53d 8d70 edbd 4a07 993d d872 263d
00000270: aaf1 f7bc 8625 153e dfd4 9b3d 3aa8 653d
00000280: bf56 82bd ad74 b2bd d948 223e 3282 bfbc
00000290: 751d a63c 0e92 583b 3ead c93d 6340 1c3e
000002a0: bca9 4ebe b9b0 26bd 0d7c 123e 984f 173d
000002b0: 0bf4 cd3d d866 0c3e de77 853d 0a0f a83d
000002c0: db62 90bc 1131 bd3c 2eff e7bd 207f 92bd
000002d0: 552b 8c3d 9978 e8bd 57cd c63d ea78 8f3d
000002e0: 10c2 d83d 54e0 15be ac87 913d 8c37 653d
000002f0: 4486 313e bd0d 13be fe56 f03a a08a e63b
00000300: 6547 79bd 42c9 413d 5ef7 41bd 0c49 bdbd
00000310: 3481 3e3d 7b70 9c3d edbe 47bd 262c fabb
00000320: 8039 e2bd 3d69 cf3d 593e e2bc 2501 87bd
00000330: 91b1 5cbd e2e2 823d fbf5 f23d 5f61 d53c
00000340: 686f 12be 5b6a d0bd 20e8 2abe 46f0 b3bc
00000350: 0f23 3c3c fb6a 3bbc 912c c23d c4a4 ab3d
00000360: 4763 cf3d 9b48 6dbd b32d 123b ea3d 873e
00000370: 6846 10be efe2 443d 2b5b ac3d 7f15 053c
00000380: 365f dbba d87e f93d 63e1 833b c4ce 5c3c
00000390: 628e c93d dc4c 3abe da7a 933d a82d e1bb
000003a0: 3871 1b3e 667c 8f3d 3302 f23c 7e3a ee3d
000003b0: ec6d e53d f427 04bd e66c 68bd 921d 11bd
000003c0: 4bf8 e63d 2865 e5bc e906 81bd 2558 5a3e
000003d0: bd62 31bd 0245 0dbd 1c8a 15bd 104f ad3c
000003e0: a553 253d 1d13 5a3c 8c75 cc3c ee19 f43c
000003f0: c939 2bbc 0c6d 1d3d 0413 8cbd ce72 8cbd
0.014481301 0.13663954 -0.0899655 -0.08065803 -0.22380057 0.026718158 0.0776633 -0.03628704
-0.14763199 0.0085859 0.03769202 -0.004642123 0.13388939 -0.028326161 0.010481865 0.09345065
-0.018796083 -0.05045204 0.013514273 0.17973217 0.020150408 -0.024844272 -0.0920337 -0.05549211
0.016581023 0.041973826 -0.12441686 0.14276367 0.09549534 -0.054933146 0.034220386 0.1584827
0.042423442 -0.008926056 0.17553619 -0.02297477 0.17680843 0.13215761 -0.03274226 0.00084455963
0.1215794 -0.0278797 -0.0017447958 0.22909434 -0.025408246 0.04532845 -0.009193092 -0.11734547
0.035821207 -0.12183473 -0.14369091 0.002052724 0.053430647 -0.055507634 0.061086092 0.010853474
-0.24126543 0.0166322 0.03859214 0.10744782 0.067498505 -0.045851436 -0.012655357 0.08635358
0.2959429 -0.12610613 0.08481393 0.083845735 -0.17191672 0.0786975 -0.18503903 0.062112898
-0.11235702 -0.14350945 -0.051754147 0.0026325027 0.066703774 0.17842847 0.03065704 -0.14558458
0.027330836 -0.01567076 -0.06744414 0.05643954 -0.056469653 -0.10509801 0.039490342 0.18075754
-0.0020611752 -0.19083141 0.17050189 -0.072007045 -0.05451454 0.11348232 -0.02322165 -0.2051532
0.047230482 -0.030530034 -0.034039747 -0.059199713 -0.10052115 -0.037777886 -0.05493518 -0.027639661
-0.008839718 -0.045053612 -0.04065576 0.11471586 0.05456767 -0.11937449 -0.048810806 -0.057131425
0.006352099 0.066471614 0.19809532 -0.118774384 -0.026505377 0.08353581 0.15610385 0.08476933
-0.11400096 -0.043110456 -0.059805047 0.012186519 0.08603514 0.059903875 0.04716546 0.08782565
0.05165533 -0.12860331 0.00307919 0.027401187 -0.029478464 0.07255084 -0.010237092 -0.026835253
0.007089789 -0.058417067 -0.039574135 -0.036340643 0.07217771 0.025735166 0.009823555 0.030369325
-0.027558997 0.05656728 -0.08944805 -0.1803696 0.022108985 -0.016971298 0.05815612 0.076485835
0.11981651 -0.11593733 0.074720934 0.040636867 -0.030266602 0.14565095 0.07608961 0.056068636
-0.06364202 -0.087136604 0.15848102 -0.023377512 0.020277718 0.003304604 0.098474964 0.15258937
-0.20181936 -0.04069588 0.14305134 0.03694114 0.10056313 0.13711107 0.065170035 0.082059935
-0.017625263 0.023094686 -0.113279685 -0.071531534 0.068442024 -0.11351127 0.09707134 0.070054844
0.105838895 -0.14636356 0.071059555 0.055961177 0.17336375 -0.1436071 0.0018336473 0.0070355684
-0.060859103 0.047311075 -0.04735505 -0.09242448 0.046509936 0.076386414 -0.048766065 -0.0076346574
-0.110461235 0.101274945 -0.02761762 -0.06592015 -0.053880278 0.06390931 0.11863323 0.026047407
-0.1430031 -0.10176536 -0.16690111 -0.021965157 0.011482968 -0.01143908 0.094811566 0.08381036
0.101263575 -0.05793057 0.002230507 0.26414424 -0.14089358 0.048067983 0.084158264 0.008122801
-0.0016736749 0.12182397 0.004024671 0.013477031 0.098416105 -0.18193382 0.072011665 -0.0068718977
0.15179908 0.07006149 0.029542064 0.1163225 0.112026066 -0.032264665 -0.05674448 -0.03542859
0.11277827 -0.028002337 -0.06300146 0.21322687 -0.043307055 -0.03448964 -0.036508664 0.021155864
0.040362973 0.013310221 0.024958394 0.02979752 -0.010450789 0.038434073 -0.068395644 -0.06857835

W0__201 f4 [1, 400, 256]
00000000: 382b 2fbd 3334 4d3c 9089 21bd 208c a2bd
00000010: 1494 82bd 0ffa 08bd 6d7c a0bd 013d a9bc
00000020: 3024 263c bce1 723d 3066 c7bb e51c 3b3e
00000030: 4886 07ba 1384 f63c e9d5 0b3c 1646 273d
00000040: d4f1 5a3e 51aa 8c3d 68a9 b8bd 0cf0 c53c
00000050: e4d1 643b 0588 a5bc b18c bcbd 5367 363c
00000060: 2f03 323d b61c 0abd fb0b b23d af91 053e
00000070: 78dc 23bd fe9c 613d 7876 dd3b 240c e73b
00000080: e5c2 8ebd 96e0 86bc 12de 523e 162b 9a3d
00000090: 570f 2d3d a5ee 85bd 1810 f03d 92d7 22bd
000000a0: 89de 9c3d bfc9 24bd 85b2 2dbd d51a b03d
000000b0: bc06 ff3d 35d7 9c3d 218b dfbc 6926 e63c
000000c0: 8a5f 323c 0a79 173d a3b0 00bd 6fe9 80bd
000000d0: ed6f 84bc ee8c a63d 7e2c 5f3d f0ef 073c
000000e0: 6e95 913d b9b9 7cbd d391 52bd 86a4 83bd
000000f0: e58a 993d 2b3d bf3d 9f6f b73d 36ef 0bbd
00000100: f488 70bd a03d 1a3c 0826 b43d 5478 4bbd
00000110: d222 343d fd28 2abd ab2e 13bd 0e5e 403d
00000120: 21b6 75bd 9289 a7bc 7cd8 79bc 1c8b 25bc
00000130: 18f1 98bd 0170 403e 3bcb e53b 3d80 93bc
00000140: 36e2 afbc f92f a83d 5978 f93d 4878 3e3b
00000150: c01f 353d b799 ba3d 4d09 03bd da3d 85bc
00000160: 8396 cd3c a429 12bd a6b8 2e3c 5c1c 783d
00000170: b684 503e 1e2a a6bd 1a04 5c3d 461d 403e
00000180: 4c95 8e3a c78c 393e 4c78 3fbd 284a ea3c
00000190: 975c 8bbd 78ef 3bbc 78d3 3a3c 31f6 2f3c
000001a0: 78bc 823c b5a7 c43d 29c2 f93d 06fe 943a
000001b0: 56cb ec3d 9493 8a3e e25b 98bd 9eef 433e
000001c0: 22e0 a03d d652 223c 2498 843e e217 853d
000001d0: abdd b8bd 53d5 813d b3dc 22bc 7d61 353c
000001e0: 94a9 c13c f9e1 103e f1f7 9a3c 0e20 2e3e
000001f0: a286 9abd 1fbf 97bd 2c8e 273e a6b1 4dbd
00000200: ca8d 5d3d 1c34 58bd 2d94 61bd 9e50 5d3c
00000210: bfe6 ba3d 5b35 7e3d cec1 b83d c7a3 aa3d
00000220: e498 b83d 3e0e 803e 7973 1cbd 2960 4b3d
00000230: 5595 c63d 6829 eb3c 1e03 063d 1e89 083d
00000240: a658 023c 2e0f e73c 0074 3c3b 3189 1b3e
00000250: 8a9b 0bbd f89a ee3c 0a6b 3b3d 2cd3 373e
00000260: 9399 8f3d 8866 dbbc acb2 54bd c391 a33d
00000270: 99b1 e9bd 3e24 e53d a850 9abd 527f c63c
00000280: f88c 5fbc 7217 263d 56da 633d 773c b5bc
00000290: 2c95 87bd fbf6 af3d 00ec 903a f488 883d
000002a0: 2921 163e dd84 81bd 2e51 7b3d 1a39 093d
000002b0: a3a0 8cbd d08b 8d3c e7f6 223d f039 883d
000002c0: 911d 99bd fe7c 6f3e 686e 203e db8c 203d
000002d0: 5c82 693d 6854 e63d eeca 67bd 8149 2bbd
000002e0: 2624 6b3e 37d7 173e 74c9 2ebd 6161 9b3d
000002f0: ff44 c03d fe4a 163d 7a86 e93d 7aee 9bbd
00000300: 7eca 94bd 1e26 52bd 9f8a 7d3c f4b9 c23c
00000310: 5905 77bd a249 233e 54ee a93c 36a9 263d
00000320: aa95 2cbd b372 893e 4205 363d ee3f 8abd
00000330: 0df9 5c3e efc0 d73c 6467 473d 7033 85bd
00000340: 0081 fbbb 54a8 5d3d ad52 1b3e 1fc5 453d
00000350: 48d4 7cb9 ea72 a63b a850 0a3c ac81 76bc
00000360: b9d3 2f3e cc20 123d e020 9a3d ac97 1bbd
00000370: 770b 943d 616b 8b3d 8da6 b43d 1ad1 d63c
00000380: ef27 04bd e892 30bd 2c7c 78bd 7363 263e
00000390: 8128 7d3d a8f0 9cbd d408 9cbc 92e6 133e
000003a0: fbac 93bd 3dd8 1ebd aed2 a63d e49d 33bb
000003b0: f1b2 aa3d 2920 e7bd cfe1 993d 7793 ed3c
000003c0: c8a3 ca3c b82e a33d 2053 d9bd 8df7 a6bc
000003d0: b6a8 773d 8c7b d2bc b7e6 903e 1d08 91bd
000003e0: 6453 a9bd 2e49 673d b2fd 3c3d f7f5 bc3d
000003f0: 1497 9cbd 0fe7 cebb 3800 50bb 3d7f 943d
-0.042765826 0.012524652 -0.03943783 -0.07936883 -0.063759 -0.0334416 -0.07836232 -0.020658972
0.010140464 0.05929731 -0.0060851797 0.18272741 -0.0005169851 0.030092275 0.008534887 0.040838324
0.21381313 0.06868423 -0.09016687 0.024162315 0.0034915144 -0.02020646 -0.09206522 0.011133033
0.043460067 -0.033718787 0.08693691 0.13043855 -0.040005177 0.05508136 0.0067585073 0.007051008
-0.06970767 -0.016464513 0.20592526 0.07527749 0.042250957 -0.065396585 0.1172182 -0.039756365
0.07659633 -0.040231463 -0.042406578 0.08598868 0.12452456 0.07658235 -0.027288022 0.028094487
0.010887036 0.036980666 -0.031418454 -0.06294524 -0.016166652 0.08132349 0.05448579 0.008296952
0.071085796 -0.061700556 -0.0514086 -0.06427865 0.07497195 0.09337839 0.08956837 -0.034163676
-0.05872436 0.009414107 0.087963164 -0.0496753 0.04397852 -0.041542996 -0.035933178 0.046964698
-0.059988145 -0.02045134 -0.015249368 -0.010103967 -0.0746786 0.18792726 0.0070127524 -0.018005485
-0.02147017 0.08212275 0.121811576 0.0029063392 0.044219732 0.0911135 -0.03199129 -0.016264845
0.025096184 -0.035684243 0.010664141 0.06057392 0.20363125 -0.08113502 0.05371485 0.18761167
0.0010878234 0.18120109 -0.046745583 0.028599814 -0.068047695 -0.011470668 0.011402957 0.010739849
0.01595901 0.096023 0.12195236 0.0011367209 0.11562221 0.27065718 -0.074394 0.19134375
0.0785525 0.009907445 0.25897324 0.06498696 -0.09026655 0.063395165 -0.009940314 0.011070606
0.023640431 0.14148702 0.018917056 0.17004415 -0.075452104 -0.074095 0.16362828 -0.050218247
0.0540903 -0.05278407 -0.055072952 0.01350799 0.091260426 0.062062602 0.0902134 0.08332019
0.090135366 0.25010866 -0.03819606 0.049652252 0.096964516 0.028706267 0.032717817 0.03333389
0.007955706 0.02820548 0.0028755665 0.15189053 -0.03408388 0.02912663 0.045756377 0.1795165
0.07011714 -0.02678229 -0.051928207 0.07986786 -0.11410827 0.11188553 -0.07534915 0.024230633
-0.013644449 0.040549703 0.055628143 -0.022123558 -0.06620249 0.0859203 0.0011056662 0.06666747
0.14661087 -0.0632417 0.061356716 0.033501722 -0.068665765 0.017278582 0.039786246 0.06651676
-0.074763425 0.23387524 0.15667117 0.03919683 0.057009086 0.11246568 -0.056590013 -0.041818146
0.22963008 0.14828192 -0.04267259 0.07586933 0.0938816 0.036692612 0.114026025 -0.07613845
-0.07265185 -0.051305883 0.015474944 0.02377031 -0.060307834 0.15946057 0.020743527 0.040688716
-0.04213492 0.2684532 0.044438608 -0.06750475 0.2157938 0.026337115 0.048682585 -0.065039515
-0.00767529 0.05411561 0.15168257 0.048283692 -0.00024111674 0.005079617 0.0084420815 -0.015045565
0.1717061 0.03567581 0.07525802 -0.037986442 0.07228749 0.0680759 0.088208295 0.026222754
-0.032264646 -0.04310885 -0.060665295 0.16248874 0.061806206 -0.07663089 -0.019047178 0.14443424
-0.07210728 -0.03878044 0.08145653 -0.0027407343 0.083349116 -0.11285431 0.07513773 0.02900098
0.0247363 0.07967895 -0.10611558 -0.020381713 0.06046363 -0.025693677 0.2830102 -0.070816256
-0.082678586 0.056466274 0.04614038 0.092266016 -0.07646003 -0.0063141654 -0.0031738412 0.07250831

R0__223 f4 [1, 400, 100]
00000000: 5d25 e23d 240e 253e f485 7d3d e847 883c
00000010: eeb8 a1bd b203 c3bd ad7b de3c 6247 063c
00000020: c3d5 523d 6360 ba3c 045c d83d cb66 1fbe
00000030: a52f d73c 5fba 0ebd 55ff 3fbd ef15 7a3d
00000040: 13ad a1bd b205 4b3d 0f9d f03c 5b55 c5bc
00000050: 4d99 6abe f55e 04be 6c50 163d 3d0d 933d
00000060: 1316 cb3c f3e2 91bc e22f 9e3c 1415 8d3c
00000070: 8b4a a63d 8544 9c3d 5d29 623c 1c6c 5e3d
00000080: 6a04 443d 4107 4d3d d6dd 103d a2b2 973d
00000090: d838 233d 8105 613d 373a 51bd 58f3 013e
000000a0: 6db3 093d 717c 723c fc31 c93d e521 ecbb
000000b0: 70b9 0dbc 2dec bb3d 5dd2 18bc 937d 2e3e
000000c0: 7f02 9f3c 2230 283c 4bcd ccbe 7aa5 00bd
000000d0: 7f3b c93c 7d7f e93c e821 613e 1e84 1a3c
000000e0: 5d5c acbc 2183 083b a421 c7bc 9907 3e3d
000000f0: 8456 ed3c 7df0 66bd 4931 913d b7b9 1bbc
00000100: aebd 513d 5d62 03be 6bf1 b7bd 172b 67bd
00000110: 0ab6 963c b4a2 853c 9d69 ecbb 193d bc3d
00000120: b9e9 833d 8b98 97bc 1621 58bd d799 14be
00000130: fff8 2e3c a7e4 c23d 62c6 b03d 7467 8e3d
00000140: a5a4 b3bd e13b c4bd aba9 073d ddb0 0bbe
00000150: bec9 33be 16a2 67be 15e6 d83d 66c1 45bd
00000160: 2ed2 f5bc 7db0 863d ef07 d73c b579 44bb
00000170: fdcd 143d 710e 92bd 80ca f23c 59a9 97be
00000180: c49e 2dbb 76f0 3f3d b75b 96bc dc95 b83d
00000190: 28e2 ca3d db43 a5bd ff22 633d 64c4 793d
000001a0: c723 143e 1cd3 ce3d d436 91bd d2ab b9bd
000001b0: ac2b 88bd acdf 893d ac60 ed3d 56d5 0c3e
000001c0: 9806 103e d53c 3d3d f854 bc3d d061 1bba
000001d0: ba8e 0bbc 583e bdbd 448a a8bd 1a40 e8bd
000001e0: f37d 883d fe4b abbb aa53 88bd c582 7dbd
000001f0: eac9 023e e743 a7bc abeb 5abd 119c d63c
00000200: d5d8 f03d e690 8d3d 2b49 09be 333d e9bd
00000210: 4aff a6bd 1995 a1bc 6979 37bd 5d73 d2bc
00000220: f3a5 593d 423e b23d 5d86 1abd 7b62 ac3c
00000230: 933e 113d 49dc 9cbd 9a7b e8bd 2388 073e
00000240: 7c33 bfbd 4020 a3bc fdee 61bd c67f 32bc
00000250: af99 21bd 66fb 553d 0c38 05bd dd8e d03c
00000260: a8da 0ebd 12bd 7fbd a54d a03d 6459 ab3d
00000270: a470 a33d 27ae 643d a371 b33d a1ca 943d
00000280: b866 673d bbb1 a7bd cbbb 503e cd4f 493d
00000290: ec0a 363d 198b cebc c982 b1bc 8a5d 27bd
000002a0: d67f efb9 38a6 c93d 2ac9 8fbc a8c9 03be
000002b0: 1309 443d 5482 26bd cbc2 b8bc e1ef 633d
000002c0: c664 d5bc db86 e63d 9702 3d3d 16c3 083d
000002d0: 4d27 3f3e b05f b03d 0cbe 5d3d fb92 223d
000002e0: 7bf5 523c 9fe8 893b d5e7 a9bd 1624 15be
000002f0: 014f 533d 879a b93c 7a32 0ebe 73f5 07bd
00000300: 779d e5bc 1c17 08bc f206 23be 4caa f93d
00000310: fa0f 92bd 8262 ea3b 61da 0bbe 2744 9c3c
00000320: 7dd1 703d c7cf 9a3d 8d42 7cbc 9906 29bd
00000330: 688c 073d 92ab b9bd cd7f 1dbd be48 14be
00000340: 3d6d 77bd 4d82 b33d ef6a a23d f4b8 bb3a
00000350: 28bf abbd 04f3 f6bd b9bd b63c 8075 d33d
00000360: bc7e 2abe f26d afbc db49 083d 7644 eabc
00000370: 9ceb 95bd 6f39 883c 9cd2 003c 179b 063e
00000380: 6213 c33d 307d c0bc e3fd 203d ed8f 633d
00000390: f6cb 1cbd b3c2 943d 9ea5 55bd 8571 0cbe
000003a0: 5a62 42bd 008d 2a3d 19d3 86bd f0e7 023d
000003b0: 9514 ae3c 1b1c 9bbd f59c 393d 3b2a ee3d
000003c0: 4939 d33c f2da 1d3c d3a7 143d 5d9e 203d
000003d0: 894f 013d fb79 94bd bb2b 1aba 7e4a 583d
000003e0: ba65 98bd 692d 133d 2ed2 5bbe 97ab b03d
000003f0: fc52 23bd c45c 003e 9ae7 173d 28a6 d83b
0.11042283 0.16118675 0.061895326 0.01663585 -0.07896601 -0.09522189 0.027158583 0.00819573
0.05147339 0.022751039 0.105644256 -0.15566556 0.026267836 -0.034845706 -0.046874363 0.061056074
-0.078943394 0.04956598 0.029371766 -0.024088552 -0.22910042 -0.12926848 0.03669779 0.071802594
0.0247908 -0.017808413 0.019309942 0.017221965 0.08119687 0.076302566 0.013803807 0.05430232
0.047855772 0.050055746 0.03536781 0.074071184 0.039849132 0.05493689 -0.05108091 0.12690485
0.03361838 0.014800177 0.09823987 -0.007206189 -0.008650169 0.09175906 -0.009327498 0.1704009
0.01941037 0.010265382 -0.40000376 -0.03140781 0.024564503 0.028503174 0.2198559 0.009430913
-0.021040136 0.0020830112 -0.024308033 0.046393964 0.028971918 -0.05638169 0.070894785 -0.009504727
0.051206283 -0.12830491 -0.08981594 -0.056437578 0.01839735 0.016312934 -0.0072147385 0.09191341
0.064410634 -0.018505355 -0.05276593 -0.1451181 0.0106794825 0.09516268 0.086315885 0.06953326
-0.08771638 -0.095817335 0.033120792 -0.13641687 -0.17557427 -0.22620425 0.1059076 -0.048280142
-0.030007448 0.06576631 0.0262489 -0.002997977 0.03632926 -0.07131661 0.029637575 -0.2962139
-0.0026492337 0.04686018 -0.01835428 0.090129584 0.09906417 -0.08069583 0.055453297 0.06097831
0.14466773 0.1009886 -0.07090536 -0.09065975 -0.06648955 0.06732115 0.11590704 0.13753256
0.14065015 0.046200592 0.09195894 -0.0005927356 -0.008517915 -0.09240407 -0.08229497 -0.113403514
0.06664648 -0.005227565 -0.06656583 -0.06189229 0.12772337 -0.02041812 -0.053447407 0.026197465
0.117601074 0.06912403 -0.13406818 -0.11388626 -0.08154161 -0.019724416 -0.04479352 -0.025689775
0.053136777 0.08703281 -0.037725795 0.021043053 0.035460066 -0.076592036 -0.113517 0.13235526
-0.09335992 -0.019912839 -0.055159558 -0.010894721 -0.039453205 0.052241705 -0.032524154 0.025458748
-0.034876496 -0.06243617 0.078273095 0.08366659 0.07980469 0.055830147 0.08761909 0.07265211
0.056494445 -0.08188196 0.20384137 0.04914837 0.04444401 -0.025212811 -0.021668809 -0.04086069
-0.00045680878 0.09846157 -0.017551977 -0.12869895 0.047860216 -0.040651634 -0.022553822 0.05564869
-0.02604903 0.112561904 0.046145048 0.033389173 0.18667336 0.08612001 0.05413632 0.039690953
0.01287591 0.004208639 -0.082961716 -0.14564547 0.051589016 0.022656692 -0.13886443 -0.033193063
-0.028029187 -0.008306291 -0.15920618 0.12190685 -0.071319535 0.0071528563 -0.13657524 0.019075466
0.058793534 0.07559162 -0.015396726 -0.041266058 0.033092886 -0.090659276 -0.03845196 -0.14480874
-0.060406912 0.08765087 0.07930552 0.0014322088 -0.083860695 -0.1205807 0.022307264 0.10325146
-0.16649908 -0.02141473 0.03327356 -0.028597098 -0.073203295 0.016628949 0.007862713 0.131451
0.09525181 -0.023497194 0.039304625 0.05555718 -0.03828045 0.072636984 -0.052159898 -0.1371518
-0.047457077 0.041638374 -0.065832324 0.031959474 0.021250049 -0.0757372 0.0453157 0.116291486
0.025784152 0.00963472 0.036292862 0.039213527 0.03156999 -0.072498284 -0.000588115 0.052805416
-0.07441278 0.03593198 -0.21466896 0.08626478 -0.039874062 0.12535387 0.037086107 0.0066116042

R0__202 f4 [1, 400, 100]
00000000: d448 98bd d3a0 acbc b429 033d 9e23 b4bd
00000010: 2d31 553d d7a2 cabd f696 b13b 8d8e ac3d
00000020: a230 ea3d c991 2dbd 3c76 b7bd b3bc 29bd
00000030: 6887 573d 5268 073d 1d05 bf3c 5705 99bd
00000040: b5a7 bd3d ed89 a33c 112e 943d 11c6 88bd
00000050: 9bc6 dbbd 61bc 1f3e 46ca 463c 5f67 2abd
00000060: 81ec 223d bf1b e33c c34d 99bd 10b0 fe3b
00000070: 5401 303b 2cad 8abd f204 a23d 6634 93bd
00000080: ddbc 3f3c b71f 91bd 72af 7f3d 8267 d03d
00000090: b553 fb3c 6237 7fbc 37ec 0dbc f08d 3ebc
000000a0: e6ba ee3c 277b dbbd a086 55bd 7122 35bd
000000b0: 4190 fabb 57b1 9bbd 7b0a 41bd c5dc 9eba
000000c0: d407 0e3d 0da8 10bd 0cfc 42bd ec2f babd
000000d0: 9789 7f3d ba69 80bd 051c 9c3a c19e bfbd
000000e0: 89c2 573d 5cac b33d 9395 983d e8b6 473c
000000f0: 4e85 c73d fafa c9bd 206d f7bd ee6e e03b
00000100: e9d3 0abe dbca 053e 0a7b 7d3d 6a9f 0b3e
00000110: 366f 64be c7fc 5fbd 52a0 dc3d 196b 5bbd
00000120: f653 043d deff 9b3d d9cb 71bc 90a9 5fbd
00000130: b3f6 233d eec6 62bc cacf 01bd 09ea 203c
00000140: 21b7 f73d 526d afbc 940e 953d bea9 8f3d
00000150: bc80 073d 94a5 f2bd a4d3 73bc f23b e53d
00000160: 00e1 e13b 36b7 16bd f271 123e 2f76 333d
00000170: ebb9 15be 21bd 9d3d 3973 87bd 809a 023e
00000180: d335 c13c 70c9 4ebd 6a90 893c cb22 4abe
00000190: 5051 20bd 177e aebd ce9a 17bd e14c ce3c
000001a0: 634a 28bd 8ec6 afba f290 0a3d 4524 b3bd
000001b0: 9601 a2bc aead 67bb ca0f 42bd ffa0 94bd
000001c0: 1ad7 12bd 7013 9d3b 0d22 183d e8de e13c
000001d0: 0bd3 5a3c e000 debc 7eaa 0bbd 534b 793d
000001e0: 37bd eebc 1354 37ba 75d3 343d e59e 0fbd
000001f0: 21ec 45bd 20b1 9b3a a057 21be f6a7 4b3d
00000200: ba1a 903d bdd5 b4bd 741d 5ebd 0835 143d
00000210: e448 2a3e b276 71bd bada 7a3d b7d5 ca3d
00000220: e0ca 353e 87dc 8cbd a4a6 453d d2f1 953d
00000230: 1898 8fbb 3423 f5bd 2a25 183d ea05 063e
00000240: d951 b9bd b94e 7d3b 1d39 053c 83d0 e1bc
00000250: df3d 073d 2416 a63c eb84 84bd 78b8 d9bd
00000260: ab50 e53d 71b0 73bc 191d bb3d 1e60 a7bd
00000270: 17d5 15be e09e 2b3e b826 66bd 7ab6 803d
00000280: 54ed be3c faf9 0d3d 573e 02bb d91a fb3c
00000290: bdf1 1c3e a135 0abe 3c9e 023c da30 293d
000002a0: 006f 1abd af41 e7bc 39a6 7bbe be5c 75bc
000002b0: 4d16 debd 15b1 debc ff30 0cbd 1da6 8fbd
000002c0: eb5d d8bc 22ca 3ebc 26f3 093d ba5f 2ebd
000002d0: 0057 8dbd ed9e 643c ad04 c93d 598d 603d
000002e0: 7ad8 073d 0ed1 3ebc fb00 963d 8d3f d43d
000002f0: b21f 8d3c 4ed0 11be 9f42 773d 8426 4ebd
00000300: 357b 4cbe c107 073e e751 8a3a c30d 84bd
00000310: dd98 a1bb 8c84 a23d 0e44 debd f438 3dbd
00000320: b36e 303c 72db 0d3e cf95 0ebe 214f 1ebd
00000330: f3d1 1f3b 2491 dd3d fc0e ac3d ef86 a3bc
00000340: 10f5 50bc 5497 3ebc fde3 8a3d ead7 39bd
00000350: ecdf c13b d1d3 00bc ac5e d2ba a6a5 d0bc
00000360: 6742 083d 1f11 033e b714 aa3d 7b0a 723d
00000370: c95a 69bd d555 9e3d 8a90 0abd 019a 93bc
00000380: cf95 9f3d 86b4 cf3d 2ffb 94bd 68a0 e4ba
00000390: ef09 653d 8912 53bd 2bca 463d 3b6e 27bc
000003a0: a3f7 ce3d e6d4 afbd f155 1b3e cfbb 283e
000003b0: 67e5 4c3e f64e 0bbb c603 d0bd ed2c 21bc
000003c0: cd1d c13d 2b17 c5bc 923d d2bd cb38 333e
000003d0: adb9 523c 7432 683c dcdf 94bd 673f 5fbd
000003e0: 0bd6 edbd 7b81 9f3d 983b 82bc 6596 09bc
000003f0: 080e f63d a65a 18bc 9a81 153d a21e 09be
-0.07435766 -0.02107278 0.032022193 -0.08795856 0.05204885 -0.098943405 0.0054196073 0.08425627
0.11435057 -0.04237536 -0.08958098 -0.041439723 0.052619368 0.033058472 0.023317868 -0.074717216
0.09260503 0.01996323 0.07235349 -0.06678403 -0.1073124 0.15599205 0.012133187 -0.04160249
0.03977633 0.027723191 -0.07485535 0.007772453 0.002685626 -0.06771311 0.079110995 -0.071877286
0.011702743 -0.07086127 0.062423177 0.101759925 0.030679563 -0.015577169 -0.008662275 -0.01163052
0.029141854 -0.10716849 -0.05213034 -0.0442223 -0.007646591 -0.07602184 -0.047129136 -0.0012120238
0.034675434 -0.035316516 -0.047603652 -0.090911716 0.062387075 -0.06270166 0.0011910206 -0.09356452
0.052675758 0.08773109 0.07450404 0.012189604 0.09742223 -0.09862323 -0.12081361 0.0068491613
-0.135574 0.13065664 0.061884917 0.1363503 -0.22308049 -0.054684427 0.10772766 -0.053568933
0.032306634 0.07617162 -0.014758074 -0.054605067 0.040030193 -0.013841374 -0.031692304 0.009821423
0.12095476 -0.021414433 0.07278171 0.07014798 0.033081755 -0.11847988 -0.014882002 0.11193074
0.006893277 -0.036795817 0.14301279 0.04381388 -0.14621703 0.07702089 -0.06613774 0.1275425
0.023585236 -0.050485075 0.016792495 -0.19739835 -0.039140046 -0.085201435 -0.037012868 0.025183143
-0.041086566 -0.0013410614 0.033829637 -0.08747152 -0.019776147 -0.0035351324 -0.04737834 -0.0725727
-0.035849668 0.004793577 0.03714185 0.02757211 0.013355981 -0.027100027 -0.03409814 0.06086285
-0.029142959 -0.0006993424 0.044146974 -0.035063643 -0.048320893 0.0011878349 -0.15756083 0.049720727
0.07036348 -0.0882983 -0.054227307 0.036183387 0.16629368 -0.058951087 0.06124375 0.09904044
0.17753172 -0.06878 0.048254624 0.07321514 -0.0043821447 -0.11969605 0.037144817 0.13088194
-0.09048814 0.0038651659 0.008131293 -0.027565246 0.03301799 0.02027423 -0.064706646 -0.10630888
0.11197027 -0.01487361 0.09136409 -0.0817263 -0.14632069 0.16759825 -0.05618927 0.06284805
0.023306526 0.034662224 -0.0019873583 0.03065245 0.15326591 -0.1349702 0.007972296 0.041306354
-0.037703514 -0.028229563 -0.24575128 -0.014975725 -0.10844097 -0.027184049 -0.034226414 -0.070141055
-0.026411971 -0.011644872 0.03367915 -0.04257176 -0.069013596 0.0139539065 0.09815345 0.0548223
0.033165433 -0.011646522 0.07324406 0.10363684 0.017227028 -0.14239618 0.06036627 -0.0503297
-0.19968875 0.13186552 0.0010552973 -0.06447937 -0.004931553 0.079354376 -0.10852824 -0.046196893
0.01076858 0.13853243 -0.13924335 -0.038649682 0.0024386614 0.10818699 0.084012955 -0.019961802
-0.01275374 -0.011632759 0.067817666 -0.045371927 0.005916586 -0.007863001 -0.0016049943 -0.025469612
0.03326645 0.127995 0.08304732 0.059092026 -0.056971345 0.07731215 -0.03382925 -0.01801777
0.077922456 0.10141854 -0.07274472 -0.0017442824 0.055917677 -0.05153135 0.048532646 -0.010219152
0.10105827 -0.08585529 0.15169503 0.16477893 0.20009385 -0.0021256781 -0.1015697 -0.009837371
0.09429512 -0.024058899 -0.1026565 0.17502134 0.012861651 0.014172185 -0.0726926 -0.054503825
-0.11613091 0.07788368 -0.015897557 -0.008397673 0.12014395 -0.009298956 0.03650055 -0.13390592

B0__224 f4 [1, 800]
00000000: c38f 0dbe 33d9 41be 147a 09be 643c 02be
00000010: 1b7f f8bd 3dab 32bd 7d2a ddbd 6fb2 10be
00000020: 1ff7 d9bd 2315 fbbd 7ad8 fcbc d11f acbd
00000030: 69fa d9bd d869 dcbd 9c03 c1bd 7e3b 19be
00000040: ce03 1fbe a9f7 0dbe 2152 10be e7e5 5bbe
00000050: a8ec 17be c472 1abe 72e4 1fbe dabb f0bd
00000060: f373 cfbd 292a 2abe 2937 27be cdaf 29be
00000070: 7fa7 30be 756a e0bd 93af 07be fa54 f8bd
00000080: 8f41 09be 5963 28be 0b0d 30be e013 dabd
00000090: 4ed6 29be ef99 f9bd 7b9d fbbd cf65 18be
000000a0: 541b 1abe 1c2e 11be 7e41 f8bd d271 f8bd
000000b0: 1846 0abe 0d06 fdbd 7911 2abe 616d 21be
000000c0: 9c74 d8bd db0d c4bd e691 93bd bdc5 06be
000000d0: eb17 e9bd 5f2f 05be 5745 fcbd 0036 19be
000000e0: b162 08be 5e02 debd eed0 0fbe 362f e6bd
000000f0: cc22 f7bd 9cd2 05be 268e 01be c06d 28be
00000100: f118 21be 0917 11be c95c 21be fb12 0fbe
00000110: 1393 efbd 558e 443d 0a01 2fbe 5f22 2fbe
00000120: f87a 03be 3716 08be fe35 11be a298 1cbe
00000130: 4098 34be f7fe 16be fddd 1abe 404f 43be
00000140: adfa d5bd 89d6 fabd 17f2 08be 6436 01be
00000150: 4cd2 14be ae9f d4bd c0f7 fdbd 1cfb 26be
00000160: e0ff 98bd f53c 1fbe d51c 27be 0030 ecbd
00000170: d343 10be be21 0bbe 8118 1dbe 7f94 ebbd
00000180: 0572 13be fcaa 07bd ae3d 05be 047a 01be
00000190: 8a78 07be 2b4c 46be 891f 07be 52be 01be
000001a0: d354 fcbd 69ce 22bd 1cde cebd da57 11be
000001b0: 41f0 f4bd bdf7 e9bd 24ad b5bc a3be 98bd
000001c0: 09bc babd 300d eabd 0b6c c4bd febe 12be
000001d0: 173a 30be 986d 0fbe 3278 0fbe f2f5 64be
000001e0: 7da2 15be 5a8b 18be 7a20 27be 31da 0fbe
000001f0: c2aa c7bd 482d 22be e244 20be 71ff 2fbe
00000200: f289 24be 3924 eabd d251 02be df86 eabd
00000210: e8dd 0abe e6b3 2abe b7c0 26be 619d cdbd
00000220: 9dec 2dbe a459 e7bd f3eb edbd cf92 18be
00000230: 4950 14be 9cca 0abe 1885 02be a911 f6bd
00000240: 4958 06be b600 f6bd 8392 24be 5cd3 23be
00000250: a0c8 dabd 9c7d c5bd 541b bebd 0548 12be
00000260: 161e e9bd 2889 09be 6148 02be 51ee 0cbe
00000270: e212 09be 1eb5 e9bd a63f 0cbe 4549 eabd
00000280: 9f39 e6bd ee83 febd b40b 03be cd58 26be
00000290: 3822 19be d07d 12be 55be 1cbe 3fb7 0fbe
000002a0: 567b ebbd 4441 853d 5c5c 36be 082c 29be
000002b0: a82f 00be 05c1 05be f982 07be 8250 20be
000002c0: e9ea 33be 9f94 18be 972a 19be f196 47be
000002d0: fe39 e0bd 0598 00be 4bf4 08be 35ce f9bd
000002e0: 6443 15be abb2 d0bd 502f 04be 282e 25be
000002f0: 6f8e 8fbd 26ac 1fbe c275 2cbe 4fb0 f5bd
00000300: 541c 1fbe 02cf 12be 8e99 19be ab15 08be
00000310: 2076 0abe 9a03 40bd 4f22 04be 9e0a fdbd
00000320: 3182 403f dcb4 693f 8df3 6b3f 4e1a 683f
00000330: cba2 6b3f 5c30 1e3f f0a8 5b3f dcfb 573f
00000340: c93b 7a3f 7256 363f 2897 143f 89fc 2d3f
00000350: ef74 363f b26b 723f b0c9 743f 5736 383f
00000360: 479f 693f d33e 613f fc57 603f 935b 643f
00000370: 7d9c 323f e4d0 573f 33e9 683f b56c 7e3f
00000380: ffbf 183f 9475 4b3f a8d7 5b3f 9262 613f
00000390: e8c2 643f 6a91 333f 6d55 4b3f 8e5f 633f
000003a0: 22ba 643f 8bf4 533f fefc 2e3f 6cfc 343f
000003b0: 7d47 553f 5708 073f 7420 723f be19 6f3f
000003c0: 2ab4 5d3f f6c5 3c3f 6dce 743f 1abc 783f
000003d0: 116b 423f 0cc7 723f d666 4e3f d93f 543f
000003e0: 705f 513f c13a 7f3f dfb4 653f 9a53 4d3f
000003f0: e796 723f f61e 673f e68a 6d3f 9cf4 463f
-0.13824372 -0.18930511 -0.13425475 -0.1271835 -0.121336184 -0.043620337 -0.107991196 -0.14130567
-0.10642838 -0.12259891 -0.030864943 -0.08404506 -0.10643465 -0.107623756 -0.094245166 -0.149641
-0.15528795 -0.13864006 -0.1409383 -0.2147442 -0.14836371 -0.15082842 -0.15614489 -0.1175458
-0.101295374 -0.16617645 -0.16329636 -0.16570969 -0.17251395 -0.10957805 -0.1325057 -0.12125583
-0.13403915 -0.16444148 -0.17192475 -0.10648322 -0.16585657 -0.12187564 -0.122858964 -0.14882587
-0.15049487 -0.14177746 -0.12121867 -0.121310845 -0.13503301 -0.1235467 -0.16608228 -0.15764381
-0.105691165 -0.09572955 -0.07205562 -0.13161369 -0.11381515 -0.13006352 -0.12317913 -0.14962006
-0.13318898 -0.10840295 -0.14044544 -0.112394735 -0.12067184 -0.13068622 -0.12651882 -0.16448116
-0.1573217 -0.14168943 -0.15758051 -0.13972084 -0.11697974 0.0479873 -0.1709024 -0.17102955
-0.12839878 -0.13289724 -0.14180753 -0.152926 -0.17636204 -0.14745699 -0.15123744 -0.190732
-0.10448203 -0.122479506 -0.133736 -0.12618405 -0.14533347 -0.10382019 -0.1240077 -0.16306728
-0.07470679 -0.15550597 -0.16319592 -0.11532593 -0.14088373 -0.1358709 -0.15341379 -0.11502933
-0.14398964 -0.033122048 -0.1301181 -0.12644202 -0.13229576 -0.19364993 -0.13195623 -0.12670258
-0.123208664 -0.03974763 -0.10100958 -0.14193669 -0.11959887 -0.114242055 -0.022177286 -0.07458236
-0.09117896 -0.114282966 -0.0959092 -0.1433067 -0.1720966 -0.1400665 -0.14010695 -0.22359446
-0.14612766 -0.14896908 -0.16320983 -0.14048077 -0.09749366 -0.15837586 -0.15651277 -0.17187287
-0.16068247 -0.1143269 -0.12726524 -0.11451506 -0.13561213 -0.16670188 -0.16284452 -0.10039783
-0.16984792 -0.112963945 -0.11617269 -0.14899753 -0.14483751 -0.13553852 -0.12746084 -0.12015087
-0.13119616 -0.12011854 -0.16071515 -0.15998596 -0.106827974 -0.09643099 -0.09282556 -0.14285286
-0.113826916 -0.13431227 -0.12722923 -0.13762785 -0.1338611 -0.114114985 -0.13696155 -0.11439756
-0.11241459 -0.12427507 -0.12797433 -0.16244812 -0.1495446 -0.14305806 -0.15306981 -0.14034747
-0.11498134 0.06506589 -0.1780867 -0.16520703 -0.1251818 -0.13061912 -0.13233556 -0.15655711
-0.1757008 -0.14900444 -0.14957653 -0.19491173 -0.10948561 -0.12557991 -0.1337444 -0.12197534
-0.14576489 -0.10190328 -0.12908673 -0.16130888 -0.07009589 -0.15593013 -0.16841796 -0.11996519
-0.1553815 -0.1433678 -0.14999983 -0.13289516 -0.13521624 -0.046878435 -0.12903713 -0.12355541
0.75198656 0.91291595 0.92168504 0.9066514 0.9204528 0.6179254 0.85804653 0.8436868
0.97747475 0.71225655 0.58043146 0.67963463 0.71272177 0.9469558 0.9562025 0.71957916
0.9125866 0.8798649 0.87634254 0.8920223 0.6977003 0.84303117 0.90980834 0.99384624
0.5966796 0.79476285 0.8587594 0.8804103 0.89359903 0.7014376 0.79427224 0.8881768
0.89346516 0.8279502 0.68354785 0.70697665 0.8331221 0.527471 0.9458077 0.93398654
0.86603034 0.73739564 0.9562748 0.9716202 0.7594462 0.9483497 0.80625665 0.82909924
0.8178625 0.99699026 0.8972911 0.8020569 0.9476151 0.9028162 0.9279007 0.77716994
