model.xauusd.H1.120.onnx (onnx, 905681 bytes, 9 tensors)

sequential/dense/MatMul/ReadVariableOp:0 f4 [100, 1]
000000 ff 07 31 be aa 77 2a be 40 5b 1c 3e 7d 55 3e 3e
       -0.17288207 -0.1664721 0.15269184 0.18587299
000010 52 7d 14 3e d7 85 10 be 55 f9 35 3e 48 5e 27 3e
       0.14500931 -0.14113556 0.17770894 0.16344559
000020 21 59 10 3e 94 52 36 3e 4f 30 2b 3e d2 7c 08 be
       0.140965 0.17804939 0.16717647 -0.13328865
000030 f4 ef 3e 3e 47 b7 ff 3d cb 67 3b 3e ca d8 19 be
       0.18646222 0.12486129 0.18301313 -0.15024105
000040 01 a8 1a be 5c 9c 47 3e 4b 10 25 3e 36 9e 22 3e
       -0.15103151 0.1949324 0.16119497 0.15880665
000050 01 43 ee bd 86 52 37 be e2 20 1f be 03 a1 0d 3e
       -0.11633874 -0.17902574 -0.15539888 0.13830952
000060 ea 93 1c 3e b3 ff 25 be 8d 14 25 be b3 3a 2a 3e
       0.152908 -0.16210823 -0.16121121 0.16623954
000070 de fc 26 3e c2 d0 2d 3e d4 c0 1a be 31 4f 2c 3e
       0.16307399 0.16974166 -0.1511262 0.16827084
000080 7f ba 18 3e 32 15 1a 3e 9c a5 12 3e 35 5a 40 be
       0.14914893 0.15047148 0.14320987 -0.18784411
000090 9c 2f f0 3d cf 61 08 be ce ef 0a be 1b 30 34 3e
       0.11727831 -0.13318561 -0.1356804 0.17596476
0000a0 04 23 07 be 3b c3 31 be c6 09 31 be 21 6a 32 3e
       -0.13196951 -0.17359631 -0.17288885 0.17423297
0000b0 29 ef f4 bd 59 f4 20 3e bd f5 27 be 2a 30 36 be
       -0.11959679 0.15718211 -0.16402335 -0.1779181
0000c0 06 2d 3a be 7a 65 28 be b4 e1 27 be 7f 4b f1 3d
       -0.18181238 -0.1644496 -0.16394693 0.11781978
0000d0 46 eb 29 be 09 b0 04 3e c2 22 1f be a8 8a 2e 3e
       -0.16593656 0.12957777 -0.15540603 0.1704508
0000e0 12 34 4e be 6a 4e 33 be 03 9d 03 3e 31 c3 19 3e
       -0.20137051 -0.17510381 0.12852864 0.15015866
0000f0 87 70 2f 3e 1f d9 20 3e 84 5b 2c 3e 10 47 11 be
       0.1713277 0.15707825 0.16831785 -0.14187264
000100 17 79 16 3e ea 82 2a 3e 42 f2 1b 3e 2d ed 20 be
       0.1469463 0.16651502 0.15229133 -0.15715475
000110 ea 49 42 be 8c 64 14 3e b6 2e 24 3e 6e d2 96 bd
       -0.18973508 0.1449148 0.16033444 -0.07364355
000120 eb 39 28 3e 80 6b 21 be 88 1a 33 be 26 85 55 be
       0.16428344 -0.15763664 -0.1749059 -0.20851573
000130 bd ca 2a 3e 91 31 25 3e c4 bc 30 be 9d 94 49 3e
       0.16678901 0.1613219 -0.17259508 0.19685598
000140 2b 5e 2e 3e 08 f2 27 be b5 6a 2f be 03 a2 21 be
       0.1702811 -0.16400921 -0.17130549 -0.15784459
000150 36 b1 2f be 81 dd 1f 3e 6e 17 26 3e 52 de 28 3e
       -0.17157444 0.15611841 0.16219875 0.16491058
000160 46 be 25 be d1 33 2a be 34 17 1d 3e 26 d4 38 be
       -0.16185865 -0.16621329 0.15340883 -0.18049678
000170 e8 55 3d be e7 9c 40 3e 94 49 1d 3e af 8d 2a be
       -0.18489802 0.18809853 0.15360099 -0.1665561
000180 0e 67 1c be ec 3d 16 3e 27 1b 3a 3e 43 62 01 3e
       -0.15273687 0.14672059 0.1817442 0.1263514

sequential/conv1d/Conv1D/ExpandDims_1:0 f4 [256, 1, 1, 2]
000000 da ea 05 3e 39 3f 8c bc 1c 80 b4 bd ba b0 a9 bd
       0.1307787 -0.01711999 -0.088134974 -0.08285661
000010 d0 6e bc bc 53 33 bb bd 90 a6 3f 3e 72 f4 39 be
       -0.023002058 -0.09140649 0.18715882 -0.18159655
000020 6a 60 2e 3e 8f 3a 29 be a2 9f bd 3d 66 e9 64 bd
       0.17028967 -0.16526245 0.09258963 -0.05588665
000030 8d 63 b7 3d 70 ae 0d 3e 54 ad 8c 3c 0a 51 8a 3d
       0.08954535 0.13836074 0.017172493 0.06753738
000040 1e 0e 1c 3e 7c eb 82 bc 92 f6 e6 3c 32 04 85 3c
       0.1523976 -0.015981428 0.028193746 0.016237352
000050 ba fa 4e bd ff 0d 4c bd e5 51 58 bd 84 12 b4 bd
       -0.05053208 -0.049818035 -0.052812476 -0.08792594
000060 02 f5 9a bd 28 10 32 bc 30 35 d9 bd 80 14 6b bb
       -0.07566263 -0.01086811 -0.10605848 -0.0035870373
000070 01 dc 84 bd f7 35 c9 bb 30 75 1b bc 76 12 0a bd
       -0.06487275 -0.0061404663 -0.009488389 -0.033709012
000080 ca 7b a5 bd ce 0a 10 bd 9e aa 3f bd 4f 2e 10 3e
       -0.080802515 -0.035166554 -0.046793573 0.14080165
000090 1f d5 c1 bd 5e 90 af 3d bf 60 ab 3d f8 c2 66 3d
       -0.09464478 0.08572458 0.08368062 0.05633828
0000a0 26 d9 46 3e 82 a5 dd bc 66 94 09 3d ae ac 06 be
       0.19418773 -0.02705646 0.03358879 -0.1315181
0000b0 15 66 dc bd ac 7d 48 3d a5 43 d6 bd 1b 71 94 3d
       -0.10761658 0.048947975 -0.10462121 0.07248136
0000c0 97 e6 0d 3e f9 8c 14 3e 44 05 c9 bd 40 ce 32 bd
       0.13857494 0.14506902 -0.098154575 -0.043653727
0000d0 86 d2 26 bc 14 c5 fe 3d f9 6d bb bd b7 24 a4 3d
       -0.010182029 0.124399334 -0.09151835 0.08014815
0000e0 c1 53 d3 bd 77 72 9e bd d3 67 89 3b 4e 17 ac 3c
       -0.10318709 -0.07736676 0.004193285 0.021007206
0000f0 be cf 30 bd fe 2d cd 3c 74 5b 8d 3c a8 59 d8 3c
       -0.04316687 0.025046345 0.017255522 0.026409939
000100 8b cd 30 3d b2 a5 ca 3d 40 f7 fe bc d4 3b 03 bd
       0.04316477 0.09894885 -0.031123757 -0.03203948
000110 32 ab a3 bd b7 b7 21 3d 2c f6 95 bd 39 30 e3 bd
       -0.07991637 0.039481845 -0.07322344 -0.11093182
000120 9d bb 64 3a 66 69 f1 3d 60 40 da bb 88 26 78 bc
       0.00087254663 0.11787681 -0.006660506 -0.015145905
000130 2b 01 43 bd 33 bf ca bd 03 0a a5 3d bc 15 2f bd
       -0.047608536 -0.098997496 0.0805855 -0.042745337
000140 c6 45 37 bd 68 99 b1 bc 98 b1 bc bc 63 d0 46 3d
       -0.044744276 -0.021679595 -0.023033902 0.048538577
000150 a2 8a bb bd d8 88 ec be dc dd 85 3d 20 e4 05 bd
       -0.091573015 -0.46198153 0.06536457 -0.03268826
000160 23 10 f5 3c 09 e7 8b ba 5a 5d 45 3e eb d0 3f be
       0.029914921 -0.0010673712 0.19273892 -0.1873204
000170 d0 9c 4b 3e 00 98 f9 bd a7 7e 1e 3e ca a9 21 be
       0.19884038 -0.12187195 0.15478002 -0.15787426
000180 40 f4 9f bb da e4 86 bd a2 3b 3a bd a8 b4 bd bc
       -0.004881412 -0.06586619 -0.045467027 -0.023157433
000190 0d 5c 81 bd af 16 cf bd f3 26 03 be bd 9f fc 3d
       -0.063163854 -0.101117484 -0.12807827 0.12335155
0001a0 d6 6c cd bd a2 a3 ac bd 20 58 f6 bb 14 76 ac bd
       -0.100305244 -0.08429648 -0.0075178295 -0.08420959
0001b0 a1 e1 4e 3d 76 b6 12 bd fa 9d d3 3d 82 13 85 bc
       0.050508145 -0.03581854 0.10332866 -0.016244654
0001c0 51 f8 5b be b9 d4 91 bd 19 f6 78 bd e7 4d e4 3c
       -0.21481444 -0.07120652 -0.060781572 0.027869178
0001d0 71 76 14 bd 1d af b6 3d 7c f3 85 3d 98 b6 ca bc
       -0.036245767 0.08920119 0.065405816 -0.02474527
0001e0 3b 59 0c 3e bc f5 a2 bd 58 3a 0c bd 38 b4 d3 3b
       0.13705914 -0.07957026 -0.03423533 0.0064606927
0001f0 bc 29 4c 3e aa de 45 be 49 dd d9 bd 4c 1e 97 3d
       0.19937795 -0.19323221 -0.1063791 0.073788255
000200 cc 77 fb bc 68 64 96 bc 65 02 c0 3c cf 26 03 3e
       -0.030696772 -0.018358424 0.023438642 0.12807773
000210 e7 28 72 3d c3 7f 16 3e 40 dc 92 ba 02 27 d9 bd
       0.05912104 0.14697175 -0.0011204556 -0.10603143
000220 38 d0 a9 3d 3e af 3c bd a5 7f 24 bc 2a 87 f0 3c
       0.08291668 -0.04606556 -0.010040198 0.029361326
000230 3f 00 33 bd 5d 60 fe 3d 76 fd a2 bd 9a 13 1b bd
       -0.043701407 0.124207236 -0.079585 -0.03786049
000240 ba 48 9d bd 14 7e a9 bc 0b 2d d0 bd 40 8e d6 3c
       -0.07679887 -0.020690002 -0.10164841 0.026190877
000250 b4 b9 94 bd c0 fd f5 3d 10 27 72 3d 93 55 e9 bc
       -0.072619826 0.120112896 0.059119284 -0.028483188
000260 23 f7 8a 3c 5e fe 9c 3d 27 6a 09 be 64 d4 b9 be
       0.016963547 0.07665704 -0.134194 -0.36294854
000270 7c 49 23 bd 3c 53 17 bd 36 7f 6c bd 55 07 da bd
       -0.039865002 -0.036944613 -0.057738505 -0.1064593
000280 30 d9 1f 3e 28 0e 1f be 12 0f 76 bd 93 b3 2a 3d
       0.15610194 -0.15532744 -0.060072966 0.04167516
000290 94 fb a9 bc 94 f9 1d bd 47 ff 7a bd 78 6e a9 bd
       -0.020749845 -0.038568094 -0.061278608 -0.08273023
0002a0 a9 4b 22 3e 6b 83 2d be 04 89 46 3d 09 ec 28 be
       0.15849175 -0.16944663 0.048470512 -0.1649629
0002b0 28 89 40 3c 34 83 3f 3c 86 cf b4 bd e4 da a1 bd
       0.011751451 0.011688996 -0.088286445 -0.07903078
0002c0 81 b1 93 3b 0e c9 09 3d ac 1d 6c 3d 4c e1 02 be
       0.004507244 0.033639006 0.057645485 -0.12781256
0002d0 a1 ab a9 bd 58 7b e3 3c af 13 f1 3d 55 8b ac 3d
       -0.08284689 0.027768776 0.117713325 0.08425013
0002e0 76 56 bd bd 60 f9 e9 bb 5c 66 38 bb 79 aa 92 3c
       -0.09245007 -0.0071403235 -0.0028137183 0.017903553
0002f0 90 ae fa bb 08 3f 63 bd 54 52 63 bb f6 dc 04 3d
       -0.007650204 -0.055480033 -0.0034686523 0.032437287
000300 c3 8b 90 bd a1 3f 32 3e a8 cd c0 3c 7b 5c 8e bd
       -0.070579074 0.17407085 0.023535565 -0.06951233
000310 c0 07 5d 3e 94 87 6f be 0e 85 d1 3c 94 c6 b7 3c
       0.21584988 -0.23391563 0.02557614 0.022433557
000320 b2 e3 8d 3b 09 38 c4 3c c3 43 5b bd 90 66 94 bc
       0.004330122 0.0239525 -0.05353142 -0.018115312
000330 6a 8f 5f bc 2d 69 22 3e 7f 61 8c bb 7f db 82 3d
       -0.013645032 0.15860434 -0.0042840834 0.06389522
000340 ed b8 dc bd d8 00 e2 bc 98 b3 50 bd 08 11 aa bd
       -0.10777459 -0.027588293 -0.050952524 -0.0830403
000350 54 1b 15 3e 9d df a1 bd 3a 0d d9 bd 22 61 93 3d
       0.14561206 -0.07903979 -0.10598226 0.07196261
000360 33 16 83 bd 28 9c 9d bc ec f7 72 3c cf 4e 12 be
       -0.064007185 -0.0192395 0.014829617 -0.14287876
000370 96 26 ce bd c5 ae 7c bd 89 39 f3 bc e6 c3 83 bd
       -0.100659534 -0.06169011 -0.02969052 -0.06433849
000380 b4 e7 48 bd 72 da b9 3c fc ee 32 bd 38 c4 3c 3d
       -0.049049094 0.02268717 -0.043684945 0.046085566
000390 ea ca 1f bd 3d e4 d5 3c 3d aa b9 bd f4 f4 53 3d
       -0.039011873 0.026109809 -0.090656735 0.051747277
0003a0 47 0b 1d 3d 7a 1a 9c bc 7d 1d 34 bd 23 f9 ee 3c
       0.038340833 -0.019055594 -0.043973435 0.029171532
0003b0 e0 75 25 bd 3e 88 54 bd fd 68 77 bd 3b fd e3 3b
       -0.040395617 -0.051887743 -0.06040286 0.0069576777
0003c0 ea 05 c7 bd 11 42 c7 bd cf 49 d8 3d b4 cc d0 bc
       -0.09717925 -0.09729398 0.10560953 -0.025488235
0003d0 d2 7c 15 bd c6 f2 b0 bd 67 36 e1 bc 37 d3 f2 bd
       -0.03649599 -0.08640055 -0.027491761 -0.11856692
0003e0 a4 a9 4d 3d 4b 9f 18 3e 53 23 b4 bd 22 dc 8c 3d
       0.05021061 0.14904515 -0.087958 0.068779245
0003f0 7f 02 12 bd e2 84 ed 3d 46 9e 8f bd bd 39 84 bd
       -0.03564691 0.11597611 -0.0701261 -0.06456325

const_fold_opt__317 f4 [1, 256, 1]
000000 d1 37 89 bd 00 00 00 00 00 00 00 00 a9 ab a0 bc
       -0.06700099 0.0 0.0 -0.019613104
000010 4e 51 93 bc 4f a9 62 bd f7 f8 d8 bc 79 f8 69 bc
       -0.017983105 -0.055337247 -0.026485903 -0.014280432
000020 0f 0b a2 bd 37 b5 3b bd 00 00 00 00 00 00 00 00
       -0.079122655 -0.045827117 0.0 0.0
000030 00 00 00 00 00 00 00 00 67 62 bd 3b 00 00 00 00
       0.0 0.0 0.0057795527 0.0
000040 00 00 00 00 14 e6 31 bc 69 ca a2 bb 7c ef b3 bd
       0.0 -0.010858078 -0.004967977 -0.087859124
000050 6b 17 fd bd 32 72 b4 3d 1e 01 c7 bb dd 6a 58 bc
       -0.12357982 0.088108435 -0.006073131 -0.013209072
000060 9c 02 6c be 00 00 00 00 e0 13 5a bc 7f 62 74 bb
       -0.2304787 0.0 -0.013310403 -0.0037290154
000070 00 00 00 00 21 f0 ec bc 5f 6c 08 ba 58 47 35 bd
       0.0 -0.028923096 -0.0005204137 -0.04425749
000080 9c 56 8b bc 00 00 00 00 8e 91 0a bb 07 46 da 3c
       -0.017009072 0.0 -0.0021143886 0.02664472
000090 ff 89 5e bc 00 00 00 00 27 eb 3d 3d 4a a2 6e bd
       -0.0135827055 0.0 0.046366837 -0.05826024
0000a0 00 00 00 00 ec df e5 bc 08 7e be 3d 8f f9 90 bd
       0.0 -0.028060876 0.09301382 -0.070788495
0000b0 84 08 03 bd 41 ba a4 bc ca df ca bd 75 42 86 bc
       -0.031990543 -0.020108344 -0.099059656 -0.016389111
0000c0 00 00 00 00 00 00 00 00 00 00 00 00 45 34 15 bc
       0.0 0.0 0.0 -0.0091067
0000d0 00 00 00 00 00 00 00 00 fe 00 47 bd 95 4c 56 bd
       0.0 0.0 -0.04858493 -0.052319128
0000e0 29 22 30 3d 12 cb 74 ba 9b 1f e1 bb 0d 87 92 bd
       0.043001328 -0.0009338121 -0.0068702227 -0.07154665
0000f0 dd 2b 8e bd 6a c0 ae ba 86 00 ac bc 2d 05 8f ba
       -0.0694196 -0.001333249 -0.020996343 -0.0010911577
000100 00 00 00 00 f6 9f 95 bc f4 56 c7 bc 00 00 00 00
       0.0 -0.018264752 -0.024333455 0.0
000110 d2 78 b5 bd 0e eb bc bc 43 69 19 bc 00 00 00 00
       -0.08860935 -0.023061302 -0.009363475 0.0
000120 00 00 00 00 ed e6 8c b9 b0 a0 1a bc 68 e7 75 bd
       0.0 -0.00026874934 -0.009437725 -0.06003514
000130 84 71 c0 bd ff 4c 10 3e 00 00 00 00 00 00 00 00
       -0.093966514 0.14091872 0.0 0.0
000140 85 94 86 bc 59 b3 a2 bb 00 00 00 00 00 00 00 00
       -0.016428242 -0.0049652276 0.0 0.0
000150 24 34 8a bc 1b 34 23 3d 2b 1a d6 bc 00 00 00 00
       -0.016870566 0.039844614 -0.026135525 0.0
000160 bb 22 27 bd df 18 68 3d 0a 78 91 39 77 38 d8 bd
       -0.040804606 0.056664344 0.0002774599 -0.10557645
000170 00 00 00 00 27 a0 78 bc 00 00 00 00 e3 0b f9 bc
       0.0 -0.015174902 0.0 -0.030401176
000180 06 eb 34 bc 5d b3 c2 bc e9 ef b9 bc a7 cd df bc
       -0.011042362 -0.023767168 -0.022697406 -0.027319742
000190 21 72 e9 bc 00 00 00 00 5e 48 81 bc 31 84 11 bc
       -0.028496804 0.0 -0.015781578 -0.008881615
0001a0 00 00 00 00 00 00 00 00 d3 e6 94 bd a5 95 2d ba
       0.0 0.0 -0.07270589 -0.0006621725
0001b0 00 00 00 00 5a cf 85 3c 00 00 00 00 5c de 88 3d
       0.0 0.016334224 0.0 0.06683037
0001c0 f8 9e 59 b9 fb 5e 04 bc 9f fc 7c b9 a0 ae 49 ba
       -0.00020753953 -0.008079286 -0.00024126701 -0.00076935627
0001d0 95 98 24 bd e1 ce 9e b9 00 00 00 00 82 74 ec b9
       -0.040184576 -0.00030290245 0.0 -0.00045100233
0001e0 00 00 00 00 6e 8c 56 bc 00 00 00 00 77 48 2a 3d
       0.0 -0.0130950045 0.0 0.041573014
0001f0 15 dd fe bd 83 35 f5 bb 0a 8d 1f bc 00 00 00 00
       -0.12444512 -0.0074831857 -0.009738216 0.0
000200 56 86 a4 bc 72 90 dc bc 00 00 00 00 00 00 00 00
       -0.020083588 -0.026924346 0.0 0.0
000210 c1 22 07 bd 00 00 00 00 09 31 d7 bc 00 00 00 00
       -0.03299213 0.0 -0.026268499 0.0
000220 10 2c 99 bc 13 c0 11 b9 9e 08 ad bc 00 00 00 00
       -0.018697768 -0.00013899831 -0.021122273 0.0
000230 84 6e 96 bc c5 52 d5 bc 29 98 1e bc 16 6d 08 be
       -0.018363245 -0.026040444 -0.0096798325 -0.13322863
000240 08 fb 54 bc cb 8b 6f bc 00 24 a2 bc dc b4 9a bc
       -0.012999304 -0.014620732 -0.019792557 -0.018885069
000250 5d 7b 24 bd 60 11 93 bc 00 00 00 00 de b3 7d bd
       -0.04015671 -0.017952621 0.0 -0.061939113
000260 72 fa bd bc ec 4e 56 b8 00 00 00 00 70 da 9d bd
       -0.02319071 -5.1095078e-05 0.0 -0.07707679
000270 a4 a1 66 bc 27 0d d9 bd 00 00 00 00 e1 92 8e bc
       -0.014076624 -0.10598212 0.0 -0.017404022
000280 ac 0b 18 bc e2 ed be 3c 81 13 67 bc 7d f1 86 bc
       -0.009280127 0.02330679 -0.014103771 -0.016472572
000290 26 7c 2a bd eb e9 90 bd b4 a6 03 bd a6 ab 86 bc
       -0.041622303 -0.07075866 -0.032141402 -0.01643927
0002a0 bc 1d c8 bc 00 00 00 00 39 d5 e7 3c 00 00 00 00
       -0.024428241 0.0 0.028299915 0.0
0002b0 17 a2 6f 3c 23 67 d8 b9 d8 f3 88 bb 67 55 5f bc
       0.014626048 -0.00041275573 -0.004179459 -0.013631201
0002c0 db 53 ce b8 7c 68 5a 3d 00 00 00 00 d1 17 0d be
       -9.838465e-05 0.0533223 0.0 -0.13778616
0002d0 e2 bd 48 bd 00 00 00 00 8b e3 a8 bc 00 00 00 00
       -0.04900921 0.0 -0.020616313 0.0
0002e0 3c d0 4a bc 5c ef 76 bc 86 1b ad 3d 00 00 00 00
       -0.0123787485 -0.015071716 0.08452515 0.0
0002f0 00 00 00 00 d4 5e 27 bc 16 46 7b ba ac 37 79 bc
       0.0 -0.01021548 -0.0009585334 -0.015211027
000300 00 00 00 00 e6 79 e3 bc 8d 07 78 ba 6a 48 c3 bc
       0.0 -0.027768087 -0.00094615744 -0.02383824
000310 06 c2 d9 3c 00 00 00 00 c0 60 48 bc a8 58 83 3d
       0.026581775 0.0 -0.012230098 0.06413394
000320 00 00 00 00 2d 55 08 be 34 21 b9 bb 76 b7 08 bd
       0.0 -0.13313742 -0.00564971 -0.033378087
000330 7c e1 c8 bc 00 00 00 00 00 00 00 00 00 00 00 00
       -0.024521582 0.0 0.0 0.0
000340 28 69 a1 3b 63 dd 68 b9 b7 3f 3c bc 00 00 00 00
       0.0049258657 -0.00022207717 -0.0114898 0.0
000350 00 00 00 00 9d 85 3a bb 25 ac d4 bd 62 eb 34 3d
       0.0 -0.0028460987 -0.103843965 0.04416979
000360 00 00 00 00 4f 04 5b bc 00 00 00 00 76 b9 2f 3d
       0.0 -0.0133677265 0.0 0.04290148
000370 00 00 00 00 20 9c a5 bc 53 4e 15 3d 3e 95 b6 bc
       0.0 -0.020216048 0.03645165 -0.022287961
000380 85 cb 2b b9 9c 4d 66 bd da 1e e3 bb 00 00 00 00
       -0.00016383648 -0.056226358 -0.006931168 0.0
000390 9d c6 2f 3d 78 85 70 bc ac 1b 91 bc 84 eb 1e bd
       0.04291402 -0.014680259 -0.01771339 -0.038798824
0003a0 2c fb 1c bc 17 c9 59 bc 00 00 00 00 d3 f0 82 bd
       -0.009581368 -0.013292572 0.0 -0.0639359
0003b0 00 00 00 00 b9 cb ce 3d 29 36 29 bd 48 61 ef bd
       0.0 0.10097451 -0.041311417 -0.11688477
0003c0 47 73 d4 bc 5d 27 73 bd c5 db 84 bc 00 00 00 00
       -0.025933875 -0.05936371 -0.016218076 0.0
0003d0 00 00 00 00 93 69 17 ba 00 00 00 00 00 00 00 00
       0.0 -0.00057759247 0.0 0.0
0003e0 00 00 00 00 00 00 00 00 95 41 71 bc f0 65 ff bb
       0.0 0.0 -0.014725109 -0.0077941343
0003f0 88 58 c2 bc b2 5c bd bc 96 fc 90 bc 3c 99 80 b8
       -0.023723856 -0.02311549 -0.017698567 -6.132058e-05

W0__222 f4 [1, 400, 100]
000000 1f 4b a6 bd 06 2e a0 be 21 0b d8 3d ca 7a 47 bd
       -0.08119797 -0.31285113 0.10548998 -0.048701085
000010 61 e4 6b bd 16 f4 06 be c6 73 c7 bd 6a aa 7d bd
       -0.057590846 -0.13179049 -0.09738879 -0.061930098
000020 0c 1b 89 3d 51 0c a8 bc aa a0 1a 3e 4d fd 22 3e
       0.06694612 -0.020513685 0.15100351 0.15916939
000030 79 b4 99 3d 93 06 e4 3c 9c e9 21 3d f7 94 c2 bd
       0.075051256 0.027835166 0.039529428 -0.09501069
000040 ff 21 90 3d 98 7d a3 3d 52 5d 40 3e 57 a8 c3 3d
       0.07037734 0.079829395 0.18785599 0.09553593
000050 92 a0 dd bc 44 25 0b bd f0 d4 88 bd 5e 54 9e bd
       -0.027054105 -0.033971086 -0.066812396 -0.077309355
000060 e3 97 4a bd 86 8a 90 3c 91 29 2a bd 1c e4 8a bd
       -0.049461257 0.017644178 -0.041543547 -0.0678179
000070 b3 30 4d 3d 67 b6 0a be 8e 9f 43 bd 56 d3 3a be
       0.05009527 -0.13546143 -0.047759585 -0.18244681
000080 5c ac 38 be 2a 1a 53 3d fa bd b2 bb fe ea 19 bc
       -0.180345 0.051538624 -0.005454776 -0.009394405
000090 67 1d 28 3e 72 33 12 be 0b 6e 15 3e 9b f0 02 3e
       0.16417466 -0.14277437 0.1459276 0.12787096
0000a0 e7 dd 25 bd 3a 28 41 bd 88 5b 4f 3d d0 fc 3e 3e
       -0.040494826 -0.047157504 0.0506244 0.18651128
0000b0 f3 ec b2 3d c8 09 19 3d a6 98 19 3e 5f 6f a3 3d
       0.08736601 0.037362844 0.14999637 0.07980227
0000c0 8c 0a 05 3e 8e 6c 17 3d dc 60 d6 bc d3 36 37 3d
       0.12992305 0.03696876 -0.026169233 0.04473002
0000d0 b6 c0 b0 bd 5d 03 de bd ec d8 c3 3d e5 8f 60 3a
       -0.08630507 -0.10840485 0.09562859 0.0008566364
0000e0 b1 f8 82 3d f2 22 f8 bd 1f 00 bc bd a5 9a 90 3b
       0.0639509 -0.1211604 -0.091797106 0.0044129663
0000f0 d3 4d 72 bc 16 77 34 3e e5 00 0f be ed 7d 3a bc
       -0.014789063 0.17623553 -0.13965185 -0.011382562
000100 e2 1e ea bd d9 32 92 bd 32 db f2 bd e0 99 28 be
       -0.11431672 -0.07138605 -0.118582144 -0.16464949
000110 df cc f4 3d c9 45 e3 bb fd 0e 82 3d 3e d2 cd 3e
       0.119531386 -0.0069358093 0.06350515 0.40199465
000120 c3 d8 63 3c cb 7a d6 bd bc db 31 3e f0 5c c2 3d
       0.0139066605 -0.1047264 0.17368978 0.09490383
000130 6c 83 b8 bd 9e d9 63 bd 05 b6 30 bd bd fe 84 bc
       -0.09009442 -0.055627458 -0.043142337 -0.01623475
000140 aa 74 b6 bc d5 ed 41 bd 29 2a 88 3d 2c 6d 85 3d
       -0.022272427 -0.047345955 0.066486664 0.065149635
000150 c2 c1 91 bd da e1 e5 bc 81 fb a2 3e a3 44 12 3d
       -0.071170345 -0.028061796 0.31832507 0.03570999
000160 5f 01 54 bc ac eb 5c 3d 55 8e 9a 39 0e 7b 19 bd
       -0.01293978 0.05393569 0.00029479215 -0.03747087
000170 cf 20 78 3d b4 a7 b8 3c 75 e6 c3 3d 40 23 b6 bc
       0.060578164 0.022540905 0.095654406 -0.022233605
000180 d0 e9 18 bd 85 e7 e8 bd fa 23 61 3d ed a6 d2 3b
       -0.037332356 -0.11372284 0.05496595 0.0064285905
000190 3c 09 90 3d 75 a0 83 be 4b a4 30 bc 5e 28 01 3d
       0.07033011 -0.25708356 -0.010781358 0.031532638
0001a0 1b 00 fa 3c 09 07 95 bd e2 d1 9a bd b9 e8 61 bc
       0.030517628 -0.072767325 -0.07559563 -0.013788396
0001b0 09 c0 43 3e 8f 00 29 be e2 a8 d4 3d d4 0d 08 3e
       0.19116224 -0.1650412 0.10383774 0.13286525
0001c0 da 9f b7 3d 13 51 9d bd ae fa ea bd bf f3 c8 bd
       0.08966036 -0.07681479 -0.114735946 -0.09812116
0001d0 bc ca 01 bd b5 0f 76 3d 49 d3 19 3e c9 09 a9 3b
       -0.031687483 0.060073573 0.15022005 0.005158637
0001e0 c2 92 73 3c c8 04 ee bc 85 47 27 bd e5 4e 1c be
       0.014866533 -0.029055014 -0.04083969 -0.15264471
0001f0 a1 be 86 bd 7c 1a 02 3d 15 91 14 bd 36 48 21 be
       -0.06579328 0.03176354 -0.036271174 -0.15750203
000200 80 69 b5 3c 95 7f 09 bd 32 82 a5 3d 08 4e 1e be
       0.022145033 -0.033568937 0.080814734 -0.15459454
000210 5a 75 9f bd c8 42 42 bd 57 1a a8 bc a1 5a e2 bd
       -0.07786055 -0.04742697 -0.020520372 -0.11052442
000220 22 32 ac 3d a7 a3 11 be d2 62 9b 3d 80 2f 13 3d
       0.084079996 -0.14222585 0.07587208 0.03593397
000230 90 a5 4a be 33 33 14 be b4 7d b6 3d 83 30 b4 ba
       -0.1978972 -0.14472656 0.08910695 -0.0013747368
000240 bc 40 26 3e 6f 05 38 3d ab 9f e4 3d 81 e3 64 3e
       0.16235632 0.044927057 0.11163267 0.22352411
000250 ab 92 14 3e 89 d1 2b 3e 3f c2 00 3c 40 01 3d 3e
       0.14509074 0.1677915 0.007858812 0.18457508
000260 64 a9 a6 bc 1d 04 18 bd 62 28 45 3e 29 c6 80 bd
       -0.020344444 -0.037113298 0.19253686 -0.06287796
000270 a8 bb c0 3c ec 21 15 3c 7e c6 0c be 31 de 35 3c
       0.023526981 0.009102326 -0.13747594 0.011100338
000280 ef 41 a2 bd c0 0a 05 bc 77 81 15 be bd e3 1f be
       -0.07922732 -0.008120239 -0.14600168 -0.15614219
000290 ad de 44 3d 6c 46 52 bd 9f 16 c3 bd f7 8c 10 be
       0.048063923 -0.05133669 -0.09525799 -0.14116274
0002a0 59 d3 8e 3d a4 f8 a4 bd b3 21 c8 3d c7 77 f4 3e
       0.06973905 -0.08055237 0.097720526 0.47747633
0002b0 0b ff 97 3c 4e 41 13 be 80 78 88 bd 97 f4 ef 3c
       0.018554231 -0.1438038 -0.066636086 0.029291434
0002c0 33 50 b4 bd f8 ef 36 be 82 97 4c 3c 82 5a d2 3b
       -0.08804359 -0.17864978 0.012487294 0.006419481
0002d0 88 95 e4 bc 66 8d 46 3d 4f 96 71 3c 52 2a 85 3d
       -0.027903333 0.04847469 0.014745309 0.065022126
0002e0 8a 23 52 3c b7 5f da bd d8 e3 9c 3d 88 76 5e 3d
       0.012825856 -0.106627874 0.07660645 0.05431226
0002f0 01 62 fa bd b4 7a 1c bd 68 90 3d be ad 76 2f be
       -0.12225724 -0.038202956 -0.18512118 -0.17135115
000300 eb a0 0e 3e d6 f8 a2 3d dd ac b6 3c 60 bb 2d bd
       0.13928573 0.07957618 0.022299225 -0.042415023
000310 68 65 e7 bc ad ae 41 bd 45 bb 3b 3c 85 c1 18 be
       -0.028246596 -0.047285724 0.011458223 -0.14917572
000320 ef ec fe 3b 42 a5 94 be 20 43 a3 bd 46 33 c3 3d
       0.0077797095 -0.29032332 -0.079717875 0.09531264
000330 07 e5 c9 3d c8 22 fd bd fe bf a1 bd bd 49 64 3d
       0.098581366 -0.123601496 -0.07897948 0.055734385
000340 66 28 f9 3d 9a d4 bc 3c dd 5f 48 3e f0 7c ce 3d
       0.121659085 0.023050595 0.19567819 0.10082424
000350 ed 04 06 3e 74 76 11 be db 8f de ba 7e b3 ee bd
       0.13087817 -0.14205343 -0.0016980128 -0.11655329
000360 3d fb 1e 3c d4 3a b3 bc 29 97 ed 3d 91 fe e2 3d
       0.009703455 -0.021878637 0.11601097 0.11083711
000370 d3 53 b9 bd ca 46 01 be ab a7 07 be 8b fd 10 be
       -0.09049191 -0.1262466 -0.13247554 -0.14159219
000380 45 e9 9f 3c ee 63 0d 3e 12 1c 39 bd 40 3f ad 3d
       0.019520411 0.13807651 -0.045192786 0.084593296
000390 fb f8 f8 3d c7 c4 50 3c 1d 2d 7d bd 3f b1 e1 bc
       0.12156864 0.012742228 -0.0618106 -0.027550338
0003a0 78 8e 98 bd ca 3c 1c 3e 68 db 1f bd 6f 70 42 bd
       -0.07449049 0.15257564 -0.0390276 -0.047470506
0003b0 22 33 80 3b 19 a6 7b bd 78 7f 5e bb 77 f2 e8 3c
       0.0039123455 -0.0614377 -0.003395049 0.028435929
0003c0 88 df 21 be fa 5e 0d be e8 33 c3 3d c0 02 5a 3d
       -0.15807927 -0.13805762 0.09531385 0.05322528
0003d0 81 fd 6f 3d e1 74 52 3e c5 99 9a 3d 68 e7 8b 3c
       0.05859137 0.20552398 0.075488605 0.017078117
0003e0 d4 9f e0 3c 7f 70 c7 3d d4 b2 06 bc b3 a2 22 3e
       0.027419962 0.09738254 -0.008221347 0.15882377
0003f0 6e 7f 2c be 9a 08 5e bd 3e 1d 44 3d b9 a7 8c bc
       -0.16845486 -0.05420742 0.04787945 -0.01716982

W0__201 f4 [1, 400, 256]
000000 59 75 49 3e 36 af 57 3d 90 73 bd 3c 1a f5 3a 3e
       0.19673671 0.05265733 0.023126394 0.18257561
000010 25 12 21 3e b8 47 f0 3d bc 9a 01 3e 53 4f 5b 3c
       0.15729578 0.11732429 0.12656683 0.013385612
000020 f0 07 70 3d 52 7a 19 3d 68 93 3f bd 11 0e bd 3d
       0.05860132 0.03747017 -0.046771437 0.092311986
000030 b0 a9 23 3c 56 49 64 3d ea 77 cb bc 0f c3 ae 3d
       0.009989187 0.055734 -0.024837453 0.08533298
000040 80 ac 63 3a a1 d8 3a 3d 75 37 08 3e d4 66 24 3e
       0.00086850673 0.04561675 0.13302405 0.16054851
000050 00 19 e0 3e 27 a5 fe 3d 6b 98 1a bd 66 70 7f 3d
       0.43769073 0.12433844 -0.037743013 0.06236305
000060 0b a1 f5 3e 04 bb ab bd b2 3f 9e 3c bf ec 5b 3d
       0.4797443 -0.0838528 0.019317482 0.053692576
000070 d8 0e 28 bc 73 08 c3 3d 08 10 57 bc 22 84 0a 3e
       -0.010257445 0.09523096 -0.013126381 0.13526967
000080 11 26 02 bd ec 5f 95 3c ec cc 0f bc e5 73 aa bc
       -0.031774584 0.018234216 -0.0087768845 -0.020807216
000090 d7 0b e9 3b a0 01 d9 bc 4f 0c c7 3d d1 8c e7 3d
       0.007112007 -0.026490033 0.097191446 0.113061555
0000a0 6c 4c b5 bd a2 3a d4 3d f9 83 e4 3c 4c c8 d3 3d
       -0.08852467 0.10362746 0.02789496 0.10340938
0000b0 6d bc f9 bb 1e d7 99 3e c9 56 a6 3e b7 be 5c 3e
       -0.007621339 0.30046934 0.32488087 0.21557127
0000c0 d5 2c a6 3d 71 ce 95 3d 5d ab 3f bd e3 bc b0 bd
       0.0811402 0.07314766 -0.046794284 -0.08629777
0000d0 a0 44 01 bc b2 2c 43 3d b1 c4 d8 3d 7d 31 12 3d
       -0.007889897 0.047650047 0.10584391 0.035691727
0000e0 23 b7 1a 3d c5 16 ca bc 3f e0 a2 3d 82 74 b1 3d
       0.03777231 -0.02466906 0.07952928 0.086648
0000f0 71 df 09 3e 92 3d 86 3b 22 78 29 3e 0e d0 a3 bc
       0.13464142 0.004096695 0.16549733 -0.01999667
000100 a5 93 a3 3d bf 32 d6 3d 2b 72 37 3c 2b 73 89 3d
       0.07987145 0.10458898 0.011196653 0.0671142
000110 4a bd 45 3d 98 21 da 3c 52 de f6 3c 87 ae af 3d
       0.048276223 0.026627347 0.030135307 0.0857821
000120 ec 68 8e 3c 09 3b c2 3d ab fb 7e 3c d9 d1 84 3d
       0.017384015 0.09483916 0.015562932 0.06485338
000130 90 d5 4e 3d 42 9b 79 3e 1c 4a 5a bd 93 de 85 3d
       0.050496638 0.24375632 -0.053293332 0.06536593
000140 97 3e 22 3e e1 6d 87 bd e0 e4 d0 3b 2e 67 04 3d
       0.15844189 -0.066127546 0.0063749403 0.032324962
000150 64 2a e4 3d 60 34 f3 3d 5e 0b e3 3d 18 e3 29 3c
       0.11140898 0.11875224 0.110861525 0.010369085
000160 be 19 bf 3b 9b 26 5c 3d 7f eb f0 3d 76 4a 49 3d
       0.005831926 0.053747755 0.11763667 0.049143277
000170 1c 0a ae bd dc 07 01 3e 18 1e 8e bc 0b 6b 85 bc
       -0.08498022 0.12600654 -0.017348334 -0.016286394
000180 4d fa 22 3d 94 cd b2 3d 16 cb 94 3e 0f ac 4e 3d
       0.039789487 0.08730617 0.29061192 0.050457057
000190 40 86 06 bb f4 85 81 bd 33 97 f2 3d d0 cf 77 bc
       -0.0020526797 -0.06324378 0.11845245 -0.01512523
0001a0 da 35 2b 3d d6 5c a2 bd e3 ae 0c 3e 3e 42 c6 3d
       0.041799404 -0.07927863 0.13738589 0.096806034
0001b0 4a d6 16 3d 35 f9 3a 3d 6a 61 7e 3d 2e 40 95 3c
       0.036825456 0.04564782 0.06210462 0.01821908
0001c0 10 5c 24 3c 7c e1 48 3d 2c c7 c3 bd aa 4f 98 bd
       0.010031715 0.049043164 -0.095594734 -0.0743707
0001d0 2b 79 f2 3d 06 a9 db 3d e8 ae 87 bd fd 2a 95 3d
       0.11839517 0.10725598 -0.066251576 0.0728359
0001e0 59 81 bc bd 4b 7b b6 3d 16 4a 6a 3d 75 77 33 3e
       -0.092043586 0.08910235 0.05719956 0.17526038
0001f0 16 9e 2d 3e 4f 8c 32 3c 6c 2b a2 3d cc 09 f0 bc
       0.16954836 0.01089771 0.07918438 -0.029301547
000200 c2 b3 77 3d a2 ce 9f 3c 19 b4 a8 3d 63 bd bb bd
       0.060474165 0.01950771 0.08237476 -0.09166982
000210 20 8d 09 3e e0 e1 3a 3c 6d 65 03 3e b0 10 05 bc
       0.13432741 0.011406392 0.1283166 -0.008121654
000220 a3 41 20 3e 40 eb e0 3a a2 32 1a bd 60 88 30 3c
       0.15650038 0.0017159954 -0.037645943 0.010774702
000230 71 28 7b 3e 70 ae 79 bd 51 c7 60 3c 3f c1 b4 3e
       0.24527146 -0.060957372 0.013719396 0.35303685
000240 1c d7 c6 bc 77 a1 08 3d e2 eb 7b 3e 9f fc e2 3d
       -0.024272494 0.03335711 0.24601701 0.1108334
000250 ac e7 02 3e b6 98 04 3e 34 1d f1 3c ef 41 f2 3d
       0.12783688 0.1294888 0.02943287 0.11828982
000260 aa 5d 30 3e ce 3e bc bd f8 a3 b3 bc 86 61 0a 3e
       0.1722323 -0.091916665 -0.021928772 0.13513765
000270 86 4a 84 b9 2a 92 32 3d 1e d7 09 3d 37 f5 19 3d
       -0.00025232526 0.043596424 0.033652417 0.03758737
000280 79 5b e1 3c e7 1c 44 3e db b5 04 bd a9 04 31 3e
       0.027509438 0.1915165 -0.032399993 0.17286934
000290 05 f8 a9 3b 78 12 ca 3d 2b 86 6a 3d c8 8a 14 3e
       0.005187037 0.09866804 0.05725686 0.14506066
0002a0 5b ff ca bb dc da a7 bd f5 be e3 3d 68 c9 83 bc
       -0.0061949915 -0.08196041 0.111204065 -0.016087249
0002b0 f6 da 70 3c 23 8d e4 3d 9a cd a8 3c 11 cd 45 3c
       0.014700642 0.11159732 0.020605851 0.012072817
0002c0 2f 04 9a bd b3 d1 4a 3e cb 72 99 bd 16 66 19 3e
       -0.07520329 0.19806556 -0.07492598 0.14980349
0002d0 6e bb 44 ba cd d8 1b bd 1a 27 55 3c 04 29 8f bc
       -0.0007504736 -0.038048554 0.013009811 -0.017475612
0002e0 c1 46 24 3e 34 f9 51 3e 66 d0 f1 3d c0 db eb bb
       0.16042615 0.2050522 0.11807327 -0.007197827
0002f0 f8 90 6d bc ff 13 03 3e 6e 31 94 3c e2 7a 5a bd
       -0.014499895 0.12800597 0.018089976 -0.053339846
000300 da 77 4a 3d d5 97 89 3d 57 5e 96 3d 13 2b a3 bb
       0.049430706 0.06718413 0.07342213 -0.0049795
000310 86 3b 1f 3e 08 20 de 3c 2d 8b 57 3e ed a6 16 3e
       0.1555005 0.027114883 0.21049185 0.14712115
000320 ba 1b b8 bd 4d d7 fc 3d 22 f4 ba 3d 77 54 d9 3d
       -0.089896634 0.12345753 0.09128596 0.106118135
000330 df 78 9f 3d fd 76 bf 3d 7a 5a 00 3d 15 c7 b6 3d
       0.07786726 0.09348867 0.031336285 0.08924691
000340 ce 46 31 3c d3 a1 9d 3d 7e 8a b4 3d ae 7f b3 bd
       0.010820104 0.07696881 0.08815478 -0.08764587
000350 ee 29 4c 3d db 64 1d ba 42 47 b5 3e 84 a1 cf 3d
       0.049844675 -0.00060041033 0.35405928 0.101382285
000360 e5 12 61 bd e8 ec 8f bd 66 00 32 3d 1a 35 9d 3d
       -0.05494966 -0.07027608 0.04345741 0.07676144
000370 3d 21 7e bd d6 3d 87 3e 93 cc b9 3d 4a d3 ae 3c
       -0.062043417 0.26414365 0.090722226 0.021340985
000380 3e 96 91 bd 14 1b b8 bc a2 02 9a bd 36 2f 1d 3d
       -0.071087345 -0.02247385 -0.075200334 0.038375102
000390 59 e4 6d 3c 98 de d3 3a ed a8 f7 3d 8a 70 fa 3d
       0.014519774 0.001616436 0.12092767 0.122284964
0003a0 0d 16 cb 3d 14 f8 10 bd 23 2f 9c bd 2b 5c 24 3d
       0.09916315 -0.035392836 -0.07626178 0.04012696
0003b0 6e 76 98 bd 79 b6 84 3d d0 c9 d6 3d 7a 9f c0 3e
       -0.07444464 0.064801164 0.104877114 0.3762167
0003c0 44 56 07 bd cb 22 48 3d 86 7f 7f 3e 5f 67 87 3d
       -0.033041254 0.048861306 0.2495099 0.06611513
0003d0 a0 2a 44 3c ee 87 ba bd b2 c7 0a 3d 99 b1 ad 3d
       0.011973053 -0.09107958 0.03388185 0.0848114
0003e0 f8 96 75 bc a2 72 77 3d 4d 5c 3c 3d 2d 31 21 bd
       -0.014989607 0.060412057 0.045986462 -0.03935354
0003f0 76 e7 4e 3e 93 ba a0 3d 27 2b 07 3e ce 08 5d 3d
       0.20205483 0.07848086 0.13200055 0.053963475

R0__223 f4 [1, 400, 100]
000000 39 41 89 3d f8 b1 15 be c0 b1 4b 3d 9c 5f 1f 3d
       0.06701893 -0.14618671 0.049730062 0.03890954
000010 12 ad 38 3c 83 fa ac bd b4 08 e0 3d 0e 63 ce 3d
       0.011271732 -0.08446219 0.1093916 0.10077487
000020 5a c1 5e bd 1a 93 c5 3d 8d 14 84 bd 5c eb d5 bc
       -0.054383613 0.09647198 -0.06449232 -0.026113205
000030 24 5a aa 3d 8e 42 52 3e 8a f2 14 3d 49 4e 45 bc
       0.08317974 0.20533201 0.036364116 -0.01204259
000040 c8 95 4f bd e9 27 9d bc 40 fb 6a ba 09 bc c4 3c
       -0.050679952 -0.01918407 -0.0008963831 0.024015443
000050 64 0a 76 3d 7b 27 32 3d a5 7c cd bc d2 0c 6e 3d
       0.060068503 0.043494683 -0.02508385 0.058117695
000060 71 7b 5f 3d 00 0d 62 bd a2 4f 42 bd 8c c7 b6 3d
       0.054561082 -0.05518818 -0.047439225 0.08924779
000070 34 57 b5 3d 22 4d f0 bb d8 39 16 bd e3 db ba 3d
       0.08854523 -0.0073334137 -0.036676258 0.09123971
000080 25 67 fc 3d e8 01 ad 3d b2 68 e9 bc 77 04 0c be
       0.12324361 0.08447629 -0.028492305 -0.13673578
000090 3b 0b af bd 5e 4c 02 be fb 29 43 bd 41 7d ec bc
       -0.08547064 -0.12724444 -0.047647458 -0.02886832
0000a0 61 5a a7 bd 7b bf ec bc c3 56 b9 3c fa d0 84 3d
       -0.08171535 -0.028899899 0.022624379 0.064851716
0000b0 6e ab 9f bd ce 6d 41 3d 89 9c b6 bd 4f 9c 17 be
       -0.077963695 0.04722386 -0.089165755 -0.14805721
0000c0 61 f9 bb bc d8 ad 40 bd 4e cb 6d bc 3e 6b 41 3d
       -0.022946062 -0.04704079 -0.014513804 0.047221415
0000d0 45 19 6c bb 81 51 8f b8 f4 ba 9b 3d 65 44 bd 3c
       -0.0036025804 -6.833953e-05 0.07604018 0.023103902
0000e0 1c 9b 0e bd dc d1 39 bc bd e4 9e 3c 05 14 4c 3d
       -0.034815893 -0.011341538 0.01939618 0.04982378
0000f0 60 31 83 3d 36 5a 4c 3e 88 17 43 3d 87 19 de bd
       0.06405902 0.19956288 0.047629863 -0.10844713
000100 be 83 b7 3d 00 de d3 bd 00 9e 62 bd bc b1 f4 bd
       0.08960675 -0.103450775 -0.05532646 -0.11947963
000110 a0 cf fc 3c ca d1 51 ba c4 67 e0 3c a6 9d c8 bd
       0.030860722 -0.00080039783 0.02739323 -0.09795694
000120 10 f9 e4 3d 53 fd 33 3d fd 03 0b be 2d 2f 34 bd
       0.111803174 0.04394276 -0.1357574 -0.043990303
000130 09 e3 45 3d 8e e0 86 3d e7 ad dc bc 3d e5 47 bd
       0.04831222 0.06585799 -0.026938392 -0.048802603
000140 69 be b7 bd e7 5e e0 3c f3 fe e7 ba 95 4c 96 bd
       -0.08971865 0.027389003 -0.0017699882 -0.073388256
000150 f6 82 14 3e 4f b1 cb 3c 42 ff 19 3e d6 bf 79 3d
       0.14503083 0.02486482 0.1503878 0.060973965
000160 d0 2b 03 bd 47 a8 d4 bd 32 3f 33 3d fc 20 55 bd
       -0.032024205 -0.10383659 0.04376144 -0.05203341
000170 f8 4e 98 bd 0d 9f b6 bb b3 c8 1f 3d 14 5f 49 bd
       -0.07436937 -0.0055731595 0.03900976 -0.04916294
000180 c4 39 34 3c 2b 80 92 3d 48 1c 8e 38 a8 8a 81 3d
       0.0110001005 0.07153352 6.7763554e-05 0.06325275
000190 aa 0e 96 bd 38 4b 98 bd 92 ca 20 3b 79 00 0f 3d
       -0.07327016 -0.07436222 0.0024534804 0.03491256
0001a0 9d 37 9f 3d 0a 1c bd 3c 32 14 21 bc 6c 3d f1 3c
       0.07774279 0.02308466 -0.009831475 0.029448234
0001b0 ac 62 9e 3b 7c 2b 6c 3d 97 83 18 3d 5e 65 95 3c
       0.00483354 0.057658657 0.03723487 0.018236812
0001c0 ec 9e 6d 3d 32 8e d1 3d 61 01 31 3a 35 54 32 bd
       0.058012888 0.102322 0.00067522196 -0.043537337
0001d0 7c 1e 03 bd ce 90 92 bd 4f f8 08 3e 7a 72 7d 3b
       -0.032011494 -0.071565256 0.13375972 0.003867297
0001e0 90 6e cc bc c5 0f 1c 3b 93 1a 08 bd 8b b1 84 bc
       -0.024955064 0.002381311 -0.03322847 -0.01619794
0001f0 34 57 a7 bd 6f 0c 6b 3c 92 c3 10 bd e3 10 0b bc
       -0.081709296 0.014346226 -0.03534276 -0.008487913
000200 3e e6 ff 3c 82 0d ca bc 2a 35 7d 3d a9 e3 cd bc
       0.031237718 -0.024664644 0.06181828 -0.02513297
000210 3e e4 3c bc 59 5a c9 ba 3c 59 85 3d 1e a7 0e bd
       -0.011529027 -0.0015362009 0.06511161 -0.034827344
000220 7f e2 51 3d 99 b1 40 bd 29 96 21 bb 47 c1 75 bc
       0.051241394 -0.04704437 -0.0024656153 -0.014999694
000230 86 17 49 bd 82 35 bd bd ba d6 ea 3c 28 0d 02 3e
       -0.0490947 -0.092387214 0.028666843 0.12700331
000240 3a ce 77 bd 80 f0 fb 3c ca a7 53 bc 1d 85 5b 3d
       -0.060499407 0.030754328 -0.012918422 0.053593744
000250 a8 05 ad 3c ee e8 15 be 23 89 ad 3d e3 22 85 bc
       0.021120861 -0.14639637 0.084734224 -0.016251987
000260 10 fd 9e bd b7 8a 98 bd ed da 5c bd 9c 89 69 bd
       -0.077631116 -0.07448333 -0.05391972 -0.057016
000270 d2 f9 51 3d a0 10 1d bd 51 3b ba bc 00 cf 94 3c
       0.051263638 -0.038345933 -0.022733362 0.018165112
000280 b6 d1 94 3d e9 03 3a 3d 45 d9 e0 3c 49 55 5b bd
       0.07266562 0.045413885 0.027447352 -0.05354813
000290 94 1f 4c bd a7 f5 0a bd 5b ac 2d 3d 11 1e 02 be
       -0.049834803 -0.03392568 0.0424007 -0.12706782
0002a0 bf 01 19 bd f9 a7 e7 bd 11 22 bc bd 27 80 4c bd
       -0.03735518 -0.11311335 -0.09186185 -0.049926903
0002b0 9b 85 6c 3d 9b 97 50 3d 74 0b 8d bc 80 e9 8d bd
       0.057744604 0.050925832 -0.017217375 -0.06929302
0002c0 2d 22 de bc 89 1e 0b 3c 84 90 3a be 74 04 f4 3a
       -0.027115906 0.008491167 -0.18219191 0.001861705
0002d0 09 45 93 bd 55 19 5e bd 55 f3 24 bc 7c 2c ea bc
       -0.07190902 -0.054223377 -0.0100677805 -0.028585665
0002e0 85 5b 87 3d a7 19 cf ba a7 fb 26 bc 75 85 b0 3d
       0.06609253 -0.0015800492 -0.0101918345 0.08619205
0002f0 79 c5 86 bc 25 f7 e7 bd 48 4a 9a 3d 13 b4 43 bd
       -0.016451584 -0.11326436 0.07533699 -0.047779154
000300 bc a0 43 bd 46 2c 94 bc 5d 04 c6 bd 37 50 d1 3c
       -0.04776071 -0.018087517 -0.09668801 0.025550945
000310 6e 71 aa bd 58 8d 73 3d a8 a9 b3 bb e2 be 99 bb
       -0.08322416 0.059460968 -0.005482871 -0.0046919445
000320 cf 10 b4 bd e2 a3 14 bc cc 3b d7 3d eb 17 04 bd
       -0.087922685 -0.009072276 0.10509452 -0.032249372
000330 93 20 67 bc 68 33 ce bc 56 6f 90 3c fc ff db bd
       -0.014106887 -0.025170997 0.017631214 -0.107421845
000340 96 2b 03 3d 67 6b 41 3c b1 6a dc bc 95 b5 4f bd
       0.03202399 0.011805392 -0.026906343 -0.05071028
000350 4f bb 15 bd 6d 86 3f 3d a1 98 e9 3b 81 d7 14 bd
       -0.036555585 0.046759058 0.0071287905 -0.036338333
000360 c8 e2 73 3d 6f 07 2e 3c 55 f4 98 3d d5 7d bf 3c
       0.059542447 0.0106218895 0.07468478 0.023375431
000370 65 00 db bc de a7 63 3d d8 8a 59 3a 1d 51 95 bc
       -0.026733587 0.055580013 0.00082985824 -0.018227154
000380 63 e8 76 3d bc 92 52 3d 5e 8a 2d bd aa aa 11 bd
       0.060280215 0.051409468 -0.042368285 -0.03556315
000390 2c 38 89 bd 01 08 07 3d a8 89 e0 3d 16 5e dd 3d
       -0.06700167 0.032966617 0.10963756 0.10808961
0003a0 02 a2 12 3d 44 c3 86 3d ed 64 22 be 53 d8 3c 3c
       0.035799034 0.06580213 -0.15858813 0.011526185
0003b0 5f bd 8d bc aa 2d 83 3c b2 84 26 be 37 fa fa bb
       -0.017302213 0.016012985 -0.16261557 -0.0076592225
0003c0 bd c7 65 3d 7c 9e be bc f0 7f 9a bc c7 68 d7 3d
       0.05609869 -0.02326893 -0.018859833 0.105180316
0003d0 97 f9 2b 3c 1f 25 b2 bc e6 4c 44 bd 27 c9 0a bd
       0.010496519 -0.021746216 -0.0479249 -0.03388324
0003e0 3f c4 d7 3d 81 2b 9b bd 92 cc 22 bb 35 d1 23 bd
       0.10535478 -0.07576657 -0.0024841172 -0.039994437
0003f0 5e 81 54 bd ca ee b8 bd dd 74 81 bc 78 55 8b bd
       -0.051881187 -0.090299204 -0.015802795 -0.06803411

R0__202 f4 [1, 400, 100]
000000 54 ba d5 3c 78 80 25 bd 85 4b d4 3b 4e c3 29 3d
       0.026089825 -0.04040572 0.006478729 0.041446023
000010 6a 3f 06 be f9 cc 43 3d c7 68 8b bd 79 41 bd 3d
       -0.13110128 0.0478029 -0.06807094 0.092410035
000020 70 09 8c bc 0e 03 8a bd 57 0a 00 3e 61 2a 2b 3d
       -0.017094344 -0.06738864 0.12503944 0.041788463
000030 de f9 9d 3d 40 1d 5b 3d be 4f 0b be 83 f8 9f 3d
       0.07713674 0.05349469 -0.13604638 0.07811072
000040 2c 69 1a 3d 5b c4 b4 3d 5f b9 6a bd cb 92 09 3d
       0.037697956 0.08826514 -0.05730569 0.03358726
000050 5c 4f 75 bd 38 c1 b3 bc eb ec 02 be 16 0b 55 bc
       -0.059890136 -0.02194272 -0.1278569 -0.013003131
000060 85 19 a8 3c e4 fd d7 3c 63 28 89 bd 8a cb b0 bc
       0.020519981 0.026366182 -0.06697156 -0.02158143
000070 1b 44 8b 3d 4d 48 9f 3b c3 30 d5 bc 76 ca 1d 3d
       0.068000995 0.004860914 -0.026024228 0.03852316
000080 84 aa 43 bd 1f 7a 59 bd 02 1c 23 be a4 8a 8d 3c
       -0.04777004 -0.05309498 -0.15928653 0.017278023
000090 9a 77 a4 bc 41 ea bb 3c ad fe 93 3d c4 c0 a5 3c
       -0.020076562 0.02293885 0.0722631 0.02023352
0000a0 42 07 54 bd 5a 5f 06 3c 41 7a 08 3e 46 9b e6 bc
       -0.051764734 0.0082014445 0.13327886 -0.028150212
0000b0 16 fb 74 3b a4 e8 e4 3b 47 a2 86 3d 7d 5c 5d bd
       0.0037381104 0.0069857407 0.06573921 -0.05404328
0000c0 6f 89 a1 bd 65 34 18 bd 63 9d 99 bd e8 bd 25 3e
       -0.078875415 -0.037159342 -0.07500722 0.16185725
0000d0 34 0b 56 be e5 1c b1 bd 14 72 cf 3d 19 8b 29 bd
       -0.20902711 -0.08648089 0.101291806 -0.04139242
0000e0 a5 69 cf bc d6 12 f0 bc 41 4d 30 3d 7f 65 4b bd
       -0.02531893 -0.029305857 0.043042425 -0.04965734
0000f0 d7 c2 f2 bd f0 45 7f 3e e0 07 62 bc 20 9f 05 be
       -0.11853569 0.24929023 -0.013795823 -0.13048983
000100 4f a4 ad bc 96 98 a4 3c 13 c8 83 bc 4e f9 55 bd
       -0.021196513 0.02009229 -0.016086614 -0.05223971
000110 85 95 ab 3d 70 c4 f1 bc 74 8c d0 3d 78 ef d2 bc
       0.08378128 -0.029512614 0.10183039 -0.025748953
000120 0b d8 0e 3e 5b c5 1d 3d a7 70 b1 3d 5e 2c 83 bb
       0.13949601 0.03851829 0.08664065 -0.0040030917
000130 8a f9 50 3d 77 62 89 bd af 98 b3 bd c2 95 c6 3b
       0.05101923 -0.06708234 -0.087693565 0.006060333
000140 ab 64 71 bc 89 a5 bb bd 6d a6 f8 bb e2 fc 95 3d
       -0.014733474 -0.09162433 -0.007588199 0.07323624
000150 67 f2 76 3d 5f 5c 57 3c 5f 43 b6 3d 44 16 28 3d
       0.060289767 0.013144582 0.08899569 0.04103686
000160 39 0a 89 bd 49 a3 b3 bd a8 4b 49 be c9 cf c3 3d
       -0.06691403 -0.087713785 -0.19657767 0.09561116
000170 a7 ad 01 3d 66 b3 27 bd 28 bb 82 3d 5d 5d b7 3c
       0.03165975 -0.040942572 0.063833535 0.022383386
000180 01 c4 b2 bc 5c 8d 92 bb e4 93 48 3c 33 c4 b9 bd
       -0.021821978 -0.0044724178 0.012242291 -0.09070625
000190 c2 c7 7a 3e 97 25 dc be 50 11 c3 3b dc b7 17 bd
       0.24490264 -0.4299743 0.0059529915 -0.037040576
0001a0 77 8a 03 3e 36 d3 bd be 3a 88 dd be 38 ff 4f 3e
       0.12845789 -0.37075204 -0.43267995 0.20312202
0001b0 32 30 c8 3e 54 ae 2e 3e 6f 1a a8 bd 17 23 96 bd
       0.3909927 0.17058688 -0.08208167 -0.073309116
0001c0 73 63 54 be 90 82 f5 3d 19 7c 38 3d 67 83 98 be
       -0.20741062 0.119877934 0.045040224 -0.29787752
0001d0 ed c1 8d be 6c 01 ea bc 0f be 08 be 58 f2 80 be
       -0.27687016 -0.028565131 -0.13353752 -0.25184894
0001e0 7c ac 53 3e 73 cb 04 3e 89 fb 96 bc 7d 53 cf 3d
       0.20671266 0.12968235 -0.018430488 0.10123346
0001f0 98 79 47 3e 7b 5e 4e be 2c 1f 7e 3e f0 2b a2 3e
       0.19479978 -0.20153229 0.24816579 0.31674147
000200 ba 7b 9e 3c f2 72 de be 25 e7 c1 be 6e 5d ac 3d
       0.019346107 -0.4344707 -0.37871662 0.08416258
000210 7e fd bb be 97 1a 87 be 8d 72 b8 bc 35 60 78 be
       -0.36716837 -0.26387474 -0.02251556 -0.2425545
000220 3f b4 49 bd 66 72 42 bd 57 8b b8 bd 80 0c 82 be
       -0.04924416 -0.04747238 -0.09010952 -0.25400162
000230 70 88 08 bf 68 e0 bb 3d f2 71 f7 bd 22 66 8a 3e
       -0.5333319 0.091736615 -0.1208228 0.27031046
000240 5e ba 68 bd a8 df 3b bd f1 0d 8c be 25 f3 ef bd
       -0.05681836 -0.045867592 -0.27354386 -0.11716298
000250 32 a1 2a be 44 e5 8b bd 03 4b ce 3d d5 87 9f 3d
       -0.16663054 -0.06830838 0.10072901 0.0778958
000260 74 16 45 bd 3f 92 b0 3e cf d7 5e bd bc 16 c4 3e
       -0.048117116 0.34486577 -0.05440503 0.38298595
000270 90 4d a4 bd 92 7f 4c 3e 36 87 89 3e 17 4f 86 3e
       -0.080226064 0.19970539 0.2686097 0.26232216
000280 95 de 60 3d d5 77 00 3d 88 9c 76 3e 9f 7e e3 bd
       0.05489977 0.03136428 0.2408315 -0.111081354
000290 1c 52 73 be 34 85 ac be a8 f6 ce be d0 58 2d 3e
       -0.23761791 -0.33695376 -0.4042256 0.1692841
0002a0 6d 16 91 be 80 bf 62 3e 48 a2 22 bb 94 b2 ec 3b
       -0.28337422 0.22143364 -0.0024815965 0.0072234366
0002b0 0d 0b 41 be 15 3e c4 be 3b 53 25 be 1f 2d b0 bd
       -0.18851872 -0.38328615 -0.16145031 -0.08602356
0002c0 32 3b 41 be d3 da 21 3e 20 2a 51 3e f5 f4 e3 3a
       -0.18870237 0.15806131 0.20426226 0.0017391728
0002d0 22 9e 2e be 4a 27 91 3d 31 e5 72 3e b6 20 a5 be
       -0.1705251 0.07087572 0.23720242 -0.3225152
0002e0 87 71 d1 be 14 92 97 3e 4c 51 b1 3e e8 43 b4 be
       -0.40906927 0.29603636 0.34632337 -0.35208058
0002f0 d4 e1 6d 3e f5 c2 f4 bd 89 c0 f5 bd fe de 48 3e
       0.23230678 -0.119512476 -0.11999614 0.19616315
000300 4f c1 38 be 53 7a c6 3e 2d 6d 54 be 70 84 e1 3d
       -0.18042491 0.387652 -0.20744772 0.110115886
000310 65 55 37 be d9 16 d7 bd 90 98 4e 3e f2 7e 5e 3e
       -0.17903669 -0.10502405 0.20175385 0.21728113
000320 3e fa ae bd 36 e9 12 bd 8a 07 22 bd eb 70 64 3d
       -0.08543824 -0.03586694 -0.03955797 0.05577175
000330 a2 02 1b bd 1f 60 09 3d b7 8e a5 3d b5 57 4e bd
       -0.037844308 0.033538934 0.08083861 -0.050376613
000340 3c 5b 1c be 2c f2 7e bd a4 02 cc 3d 6e fb 24 bd
       -0.15269178 -0.06224267 0.09961441 -0.040278845
000350 43 42 e2 3d a8 f0 4a bd c1 96 6e bd 7c 44 fb 3d
       0.11047795 -0.049545914 -0.05824924 0.12268922
000360 14 4e 9a 3d 8b ea 1e bd 09 35 02 3d 28 03 f5 3d
       0.075344235 -0.038797896 0.03178886 0.11963493
000370 f3 ee 46 bd 36 84 e9 3c e0 6f fe bd 12 bf 84 bd
       -0.048567723 0.028505426 -0.12423682 -0.06481756
000380 cf 28 d3 bc c4 20 11 3e 4d 92 6d bd 4b ae 7a 3c
       -0.025776295 0.14172655 -0.05800085 0.015300344
000390 ba 21 0d 3c 03 bc 0c 3e 57 56 86 3d a6 16 e6 bc
       0.008613998 0.13743596 0.06559437 -0.028086971
0003a0 cc b9 a7 3d 79 11 3d bc df 15 97 bd 4f b3 7c 3d
       0.08189735 -0.01153981 -0.073772185 0.06169444
0003b0 9c 09 34 3e d3 46 14 bd e6 51 14 3e 23 63 38 3d
       0.1758179 -0.036200356 0.14484367 0.04501642
0003c0 cc ab 11 3c 92 a0 e6 3c ef c9 17 3d 39 47 3d bd
       0.008891057 0.028152738 0.037057813 -0.0462105
0003d0 df 88 fb 3d bb 6d 32 3d 83 a4 01 3e 33 89 22 bc
       0.122819655 0.04356168 0.12660412 -0.009920406
0003e0 38 ba 01 3e 47 c3 24 3e f1 4a 38 be 70 d4 81 3d
       0.12668693 0.16090117 -0.17997338 0.06339347
0003f0 91 af 13 be 75 5a ad bd d6 0c ce 3d e5 a9 e7 bd
       -0.14422442 -0.08464519 0.10061042 -0.11311702
