MQL5/Files/model.xauusd.H1.120.onnx (onnx, 906007 bytes, 9 tensors)

sequential_1/dense_1/MatMul/ReadVariableOp:0 f4 [100, 1]
000000 94 b5 1b 3e 5f b3 3b be 86 58 09 3e 5e 79 1b be
       0.15205985 -0.18330143 0.13412675 -0.15183017
000010 08 0f 21 be 5f 3a 22 3e af ef 3c be f2 88 10 be
       -0.1572839 0.1584258 -0.18450807 -0.1411474
000020 0a 00 13 be 43 af 27 be c2 2d 0f 3e e9 9f 2b be
       -0.14355484 -0.16375451 0.13982299 -0.1676022
000030 04 a9 0b be ed ef c7 bd 93 a8 2e be fb 70 2f 3e
       -0.13638693 -0.09762559 -0.17056493 0.17132942
000040 d3 3e 25 be e0 91 32 3e a3 e9 2f be 44 25 4a be
       -0.16137247 0.1743846 -0.17178969 -0.19740778
000050 11 5a 2e be 68 a7 05 be 1c 20 27 be ed 7b ef 3d
       -0.17026545 -0.13052142 -0.16320843 0.11693559
000060 61 9a b7 3d ea 91 13 3e be 36 f6 3d 9f 52 20 be
       0.08964992 0.1441113 0.1202216 -0.15656517
000070 b7 e6 1b 3e d2 87 11 3e 3b 52 93 bd 67 2c 2d be
       0.1522473 0.14211968 -0.071934186 -0.1691147
000080 ab 72 19 3e 85 46 2b be d5 c5 05 3e 57 f0 1d be
       0.14985149 -0.1672612 0.13063748 -0.15423714
000090 5d 7f 2d 3e 41 df 0d 3e 2c 31 2c be 7e 1d 3c be
       0.16943116 0.13854696 -0.16815633 -0.18370625
0000a0 6e bf 39 be 2e 45 18 3e 75 34 2b 3e df fd 23 3e
       -0.18139431 0.1487014 0.1671923 0.16014813
0000b0 63 52 26 3e 09 7b 34 3e 76 80 2b be 9a 70 03 be
       0.16242366 0.17625059 -0.16748223 -0.12835923
0000c0 ea d7 0a 3e bc 97 e9 bd af 9b 17 3e c2 76 29 3e
       0.13558927 -0.11405894 0.14805482 0.16549209
0000d0 6b ac 06 be 20 3d 22 3e 1b ae 0b be d1 54 2d 3e
       -0.1315171 0.1584363 -0.13640635 0.16926886
0000e0 e6 ee 29 be 2f c0 13 be 0d 16 14 be fc 25 1e be
       -0.16595039 -0.14428781 -0.14461537 -0.15444177
0000f0 9d 5c 15 be 3c ad 11 3e 73 2d 1b 3e a0 5e 23 be
       -0.1458611 0.1422624 0.15154056 -0.15954065
000100 07 f4 1f 3e 9e a5 53 be c3 80 19 3e 21 fd 0d be
       0.15620433 -0.20668647 0.14990525 -0.13866092
000110 0b 6e 1f be 33 93 03 3e 96 e0 3a be 70 6c 18 be
       -0.15569322 0.12849121 -0.18249735 -0.14885116
000120 b9 a5 12 be 70 e9 1b 3e 6f fd 22 be fb a7 f7 3d
       -0.1432103 0.15225768 -0.1591699 0.120925866
000130 d7 5b 12 be e1 f8 31 be b7 87 20 3e 67 b0 22 3e
       -0.14292847 -0.17380096 0.15676771 0.15887605
000140 37 a7 13 be 42 75 27 3e 2d 54 0e 3e d0 01 39 be
       -0.14419256 0.16353324 0.13899298 -0.18067098
000150 88 6a 2a 3e e2 af 2c 3e 57 f5 0d be 8e e2 19 3e
       0.16642201 0.16863969 -0.13863121 0.1502783
000160 c5 b1 0a 3e 3c 96 01 3e 2a c3 27 3e e7 90 1d be
       0.13544376 0.12654966 0.16383043 -0.15387307
000170 f2 81 04 3e 9c 84 34 be f0 8a d8 3d b2 7f 0b be
       0.12940195 -0.17628711 0.10573375 -0.1362293
000180 f7 29 1b be ac 7f 23 be 8a c7 40 3e 0b 1d 14 3e
       -0.15152727 -0.15966672 0.18826118 0.14464204

sequential_1/conv1d_1/Conv1D/ExpandDims_1:0 f4 [256, 1, 1, 2]
000000 a4 2d d3 bc 40 3c 0f bd f3 47 50 3d 53 f4 23 3d
       -0.0257786 -0.03496957 0.050849866 0.040027928
000010 f0 62 14 bc 6c 3f ce bd 30 bc 1d bc 29 da d1 bd
       -0.009056792 -0.100706905 -0.009627387 -0.10246689
000020 49 a5 f1 3d 88 02 88 bd 96 f9 36 37 98 3e 99 bd
       0.11799104 -0.06641108 1.0906157e-05 -0.07482642
000030 05 30 24 bd 8f 5b b5 3d 1b 3d 47 3c 14 7c 94 bd
       -0.040084857 0.08855354 0.012160565 -0.072502285
000040 a2 e3 a4 3b dd 4a 93 3c d1 b4 5e 3e 58 d2 ab bd
       0.0050320188 0.017980034 0.21748663 -0.08389729
000050 16 39 98 3d e8 f5 00 3e d8 c2 e3 bc 64 bf 9e bd
       0.07432763 0.12593806 -0.02780287 -0.077513486
000060 8f d9 ae bd 22 aa b5 bd 00 c4 fd b9 6a cd a3 bd
       -0.0853759 -0.08870341 -0.00048401952 -0.07998164
000070 d6 ed ec bc bc a3 e4 3c 55 4d 24 3c b6 0b f1 3c
       -0.028922003 0.027910106 0.010028203 0.02942453
000080 f2 02 14 bd 37 b8 99 bd 9d e9 48 3d 22 f2 dc 3d
       -0.03613562 -0.07505839 0.049050916 0.10788371
000090 96 17 43 3e 82 2f 0b bd b8 92 01 bc 95 b9 7d bd
       0.19051966 -0.033980854 -0.007908516 -0.061944563
0000a0 58 49 38 bd 32 b8 5a bd 6d e3 9a bd 60 08 72 3d
       -0.04499182 -0.05339832 -0.07562909 0.05909002
0000b0 a1 e5 17 bd 79 fc 82 bd c0 17 1b bd 9b eb 92 3d
       -0.037084226 -0.063958116 -0.037864447 0.071738444
0000c0 20 eb 92 bd 33 3e d7 bd d7 13 82 3d 9d 4a c4 bd
       -0.07173753 -0.105099104 0.063514404 -0.09584544
0000d0 70 ac 80 bc bc 71 c6 bd 9a bf 34 bc b0 e1 de 3d
       -0.015707225 -0.09689662 -0.0110320095 0.1088289
0000e0 0b 73 81 bd 2b 0f d3 3d ac 82 b1 bd 28 0e 5e bc
       -0.06320771 0.103056274 -0.08667502 -0.01355318
0000f0 11 27 44 3e 1a d6 24 be 0d 3a 32 be 24 a5 00 bd
       0.19155528 -0.16097298 -0.17404957 -0.03140749
000100 0d 2e 31 3e b7 29 ef bc fc 35 4b bd f6 b8 f1 3d
       0.17302723 -0.029194696 -0.04961203 0.118028566
000110 7e 76 6e 3e c8 1c 9a bd db 03 ce bd 9d 78 83 3d
       0.23287389 -0.07525021 -0.10059329 0.064194895
000120 db 72 e3 bc 3e de 5d 3d 99 1f 85 3e b2 92 6f be
       -0.027764728 0.054167025 0.2600067 -0.23395804
000130 48 83 26 3e 4a ec 05 3e 1c 9b 44 3c 36 93 a7 3d
       0.16261017 0.13078418 0.011999872 0.08182375
000140 3c 0f c3 bc 30 2b 21 bd 84 47 f4 bc f5 42 94 bd
       -0.023810975 -0.039347827 -0.029819258 -0.072393335
000150 54 a8 98 bd bd e3 6b bd 41 f9 9f bd 1f a3 ca bd
       -0.07453981 -0.057590235 -0.07811213 -0.09894394
000160 d3 20 af bd a7 a1 8d bd 61 28 87 bd 61 f2 21 3d
       -0.085511826 -0.06915598 -0.065994985 0.03953779
000170 17 65 8c bd 5c 42 8e 3d 32 6a 87 bd a7 d4 f4 bc
       -0.06855219 0.06946251 -0.06612052 -0.029886557
000180 a9 cf 4c 3c 2b c9 4a 3d c7 ae b9 bd 16 4f e2 3d
       0.012500682 0.049508255 -0.09066539 0.11050241
000190 6a 6e 1d bd d6 7f fe 3d 75 6a 7e 3d f9 9c b6 3d
       -0.038435377 0.124267265 0.062113244 0.08916659
0001a0 41 f9 ac bb 7c 1a f6 3d b4 ad d4 bd 60 a4 52 bd
       -0.005278737 0.1201677 -0.10384694 -0.05142629
0001b0 a2 56 b6 bd 99 6d 19 3b 81 b1 63 bc 98 17 bd 3c
       -0.08903243 0.0023411273 -0.013897301 0.02308254
0001c0 5e 06 72 bd c3 a4 df bc b8 c5 73 3d 9e 0a 6c 3d
       -0.059088103 -0.027300244 0.05951473 0.057627313
0001d0 9e 50 46 bd ba 08 ae bd bc ab 01 bc 35 b2 8f 3d
       -0.048416726 -0.08497758 -0.00791448 0.07016412
0001e0 17 9c dc bd 24 b2 86 3d ad 94 1e 3d e1 90 a1 3d
       -0.10771959 0.065769464 0.038716007 0.078889616
0001f0 cb 32 c3 bd 30 29 f2 bc 4f 1f c3 be 23 99 e0 be
       -0.09531172 -0.029560655 -0.38109824 -0.43866834
000200 53 bf cb 3d 6d aa 78 bd 63 8d a5 3d 55 3c df bd
       0.099486016 -0.060709406 0.08083608 -0.10900179
000210 49 e7 03 bd b2 5b 88 bd 1e dc a0 bd 33 83 30 3b
       -0.032202993 -0.066581145 -0.07854484 0.002693367
000220 72 df 2a 3d 27 ba 01 3e 33 81 79 3d 19 6c 16 3e
       0.041717 0.12668668 0.06091423 0.14689673
000230 c8 a3 52 3e f5 2f 3f be a4 ce 84 3d 6f 3f 01 3e
       0.2057029 -0.18670638 0.06484726 0.12621854
000240 b2 62 b0 bd a9 57 49 be 75 4f be bd 05 14 b3 3d
       -0.08612575 -0.19662346 -0.09292499 0.08744053
000250 5b 41 c4 3d b9 ea ce bc a5 de 4d 3d b3 8b d7 3c
       0.09582778 -0.025258409 0.05026116 0.026311731
000260 fb 22 e8 3c f1 a2 d4 3d 57 b3 37 bd de d5 a7 bd
       0.028336992 0.10382641 -0.044848766 -0.08195089
000270 9b 43 41 bd c0 d9 96 bc 13 fd 21 3e 76 9d d5 bd
       -0.047183614 -0.018414378 0.15819196 -0.10430424
000280 17 5f bd 3c 6b 9a 89 3d 85 3c ce 3b 39 24 c7 3c
       0.023116631 0.06718906 0.0062938356 0.024309264
000290 20 dc 73 3d 17 1b ff 3d 39 07 e2 bc 4c 49 52 3d
       0.0595361 0.12456339 -0.027591335 0.051339433
0002a0 c8 9a a1 bd e0 10 34 bb 15 7f 7e bd 48 eb c4 bd
       -0.0789085 -0.0027475879 -0.062132914 -0.09615189
0002b0 f3 2c 1d bd c4 14 ba bd 3c 1d 67 3d 00 91 d9 bd
       -0.038372945 -0.09085992 0.056424364 -0.1062336
0002c0 04 0f ca bc 7e 3a bd bd bb e8 1b 3d f4 d0 ca 3c
       -0.024665363 -0.09239672 0.038063746 0.02475784
0002d0 f4 f0 ac 3c 0a ec 55 bd 90 26 ca bc bc f3 5b bd
       0.02111099 -0.052227058 -0.024676591 -0.05369924
0002e0 a2 c2 79 bd c3 f9 8b 3c c1 4a fc 3d f8 44 84 bd
       -0.060976632 0.01708687 0.12318946 -0.06458467
0002f0 c3 7a 90 bd 2e ff 85 bd 10 a6 ac 3a c1 ff 7d bd
       -0.07054665 -0.06542812 0.0013172049 -0.062011484
000300 22 52 c8 3d 50 64 f5 3d 3b 29 d6 bd a8 3c db bc
       0.097812906 0.11982024 -0.10457083 -0.026762322
000310 1f 02 84 bd 14 72 4f be e4 8e cc bc 3d b9 d8 bd
       -0.06445717 -0.20258361 -0.02497048 -0.105822064
000320 be b4 e1 3c 82 49 66 bc 1a e0 81 bd da dd 6c be
       0.027552005 -0.014055612 -0.06341572 -0.23131505
000330 21 95 ab 3c 8d 2f 5b 3d 00 3d 0c ba 14 e0 98 bd
       0.020945134 0.053512145 -0.0005349666 -0.074646145
000340 b7 79 b5 bd 97 f5 14 3d c0 b1 b4 bd 2b b1 56 3d
       -0.08861106 0.036367025 -0.088229656 0.052415054
000350 0c 8c 94 3d e1 37 ff 3d 11 9d d2 3d 4e 5c 2f bd
       0.07253274 0.1246183 0.10283864 -0.042812638
000360 60 89 be 3c 46 e9 b0 3d ac 47 90 bd e0 16 ab bd
       0.023258865 0.086382434 -0.0704492 -0.083539724
000370 38 b6 c6 3d cb 12 7f bd c6 0c 90 bd 40 51 80 bc
       0.09702724 -0.06227378 -0.07033686 -0.015663743
000380 70 6a b9 bb 79 4d 62 bd ac 21 88 bd 10 22 72 bc
       -0.0056584403 -0.055249665 -0.066470474 -0.014778629
000390 ac 91 21 bd d8 60 c6 3d e4 95 ea bc 23 7c 9a bd
       -0.039445564 0.0968644 -0.028635927 -0.075432085
0003a0 49 0a 45 3d fd d8 37 3c 61 72 e5 bb 8f 78 cb 3d
       0.04810551 0.011221168 -0.0070021604 0.09935104
0003b0 ee 50 0d 3e 69 b7 c1 bd c2 d1 a2 3c dd 94 77 3c
       0.13800403 -0.09458811 0.019875411 0.015111175
0003c0 ad 74 43 be e8 74 3d bd d9 de 2a 3d 21 33 a8 bd
       -0.19087477 -0.04625407 0.04171643 -0.08212877
0003d0 0f 23 6a bd be 49 b8 3c 81 93 dd 3c 81 c9 0d bc
       -0.05716234 0.0224961 0.027047874 -0.008653999
0003e0 80 a2 34 bb 48 3b 29 bd 12 07 60 bd 54 e8 fb bc
       -0.0027562678 -0.0413163 -0.054694243 -0.030750431
0003f0 46 f7 6e 3d e2 04 aa bc d4 8a fe bc 44 b5 94 bc
       0.058341287 -0.020754281 -0.031072058 -0.01815284

const_fold_opt__958 f4 [1, 256, 1]
000000 00 00 00 00 09 88 95 bd 00 00 00 00 00 00 00 00
       0.0 -0.07301337 0.0 0.0
000010 ac fb 82 bd 01 7a b4 bb c0 7d 55 bd 6e 34 4b bc
       -0.06395659 -0.005507708 -0.052121878 -0.012402637
000020 1d b0 c5 bc 87 6c 19 bd 3a f8 a4 bd 00 00 00 00
       -0.024131829 -0.037457015 -0.08055158 0.0
000030 00 00 00 00 00 00 00 00 b7 48 83 bb df 84 31 bd
       0.0 0.0 -0.004006471 -0.043339606
000040 00 00 00 00 19 61 82 bd 14 44 03 be 00 00 00 00
       0.0 -0.06366176 -0.12818938 0.0
000050 00 00 00 00 a7 14 d8 bb f6 3f e8 3c e9 d4 12 bd
       0.0 -0.006594259 0.028350811 -0.03584758
000060 00 00 00 00 f5 c6 fc bc 00 00 00 00 49 57 56 bd
       0.0 -0.030856589 0.0 -0.052329335
000070 7c 42 ba bc 00 00 00 00 7d 35 06 bd 14 ac ae 3d
       -0.02273678 0.0 -0.032765854 0.08528915
000080 0e 52 ef bd 74 47 57 bd df c3 20 bd e2 ba d7 ba
       -0.116855726 -0.052558377 -0.039249297 -0.0016458894
000090 33 ba e4 bc 33 c5 28 bd 58 bc 6e be ae 16 84 bd
       -0.027920818 -0.04120369 -0.23314035 -0.06449638
0000a0 00 00 00 00 00 00 00 00 00 00 00 00 00 00 00 00
       0.0 0.0 0.0 0.0
0000b0 00 00 00 00 8a 2a 86 bb 55 2a d2 bb 7f 44 03 3b
       0.0 -0.0040944265 -0.006413738 0.002002984
0000c0 98 c3 84 bd 84 7d b9 bc f6 89 ac bc 82 ee 88 bd
       -0.06482619 -0.022642858 -0.021061879 -0.06686117
0000d0 4c de 78 bd 00 00 00 00 f7 08 f6 ba b2 02 47 bc
       -0.060758874 0.0 -0.0018770982 -0.012146639
0000e0 21 44 c2 b9 f6 ff f1 bd 00 00 00 00 bf 49 85 bd
       -0.00037053323 -0.11816399 0.0 -0.065082066
0000f0 54 4c db ba a9 46 a5 bd 00 00 00 00 7e 9f f2 3d
       -0.0016731122 -0.08070118 0.0 0.11846827
000100 7c 56 52 bd 43 ad 56 bd 42 4e fc 3c 49 b2 1e bb
       -0.05135201 -0.05241133 0.030799035 -0.0024215153
000110 12 f9 ec bd ad 11 2a be c1 11 0a bd 74 71 10 bd
       -0.11570944 -0.16608305 -0.033708338 -0.035264447
000120 9e 2c b4 3d 9d 42 b1 bb 31 f0 99 bd 61 e2 a0 bd
       0.087975726 -0.0054095523 -0.07516516 -0.07855678
000130 7e c0 d5 bd 27 d6 36 3d 6b d6 04 3b df 6a 82 bd
       -0.104371056 0.044637825 0.0020269405 -0.0636804
000140 f8 2e bb bd 96 86 01 bd 53 cd 15 bd 93 62 d4 bc
       -0.09139818 -0.03162249 -0.036572766 -0.02592591
000150 00 00 00 00 00 00 00 00 6d b3 87 3c 55 2a ff bc
       0.0 0.0 0.016565049 -0.031148115
000160 00 00 00 00 85 6d 83 bd f3 89 c1 bc 00 00 00 00
       0.0 -0.064173736 -0.02362535 0.0
000170 0c 79 65 3a 27 e4 86 bd 00 00 00 00 4f cf 0c bb
       0.0008753694 -0.06586485 0.0 -0.002148587
000180 6c ca 31 be 00 00 00 00 98 45 8c 3d 00 00 00 00
       -0.17362374 0.0 0.068492115 0.0
000190 bf 66 e9 bc 4d af 9b 3d 43 81 b9 bd 00 00 00 00
       -0.028491376 0.07601795 -0.09057858 0.0
0001a0 2c 9e 83 bb e6 51 b9 3a b5 73 a0 bd f4 06 ae bd
       -0.0040166583 0.0014138788 -0.07834569 -0.0849742
0001b0 1d b7 e2 bd 00 00 00 00 72 92 8c bd 00 00 00 00
       -0.11070082 0.0 -0.0686387 0.0
0001c0 00 00 00 00 00 00 00 00 58 40 71 bd 00 00 00 00
       0.0 0.0 -0.058899254 0.0
0001d0 6f 9d 75 bd b4 46 84 bd e1 a5 66 bd fd 2f 14 bd
       -0.059964593 -0.06458798 -0.05631054 -0.036178578
0001e0 b4 a7 b5 3d 6d a0 3d bd 62 9d da b9 c1 7b f1 bc
       0.088698775 -0.046295572 -0.0004169746 -0.029477956
0001f0 00 00 00 00 00 00 00 00 09 86 70 bd 00 00 00 00
       0.0 0.0 -0.058721576 0.0
000200 00 00 00 00 3f 56 53 bd 00 00 00 00 00 00 00 00
       0.0 -0.051595923 0.0 0.0
000210 00 00 00 00 2d 80 3d bb ff 25 e7 3d cf d3 d8 bc
       0.0 -0.002891551 0.11286544 -0.026468186
000220 00 00 00 00 00 00 00 00 c5 f6 7a bd 34 0e 60 3b
       0.0 0.0 -0.061270494 0.0034188153
000230 b4 93 57 ba 00 00 00 00 79 db 23 bb 00 00 00 00
       -0.00082236086 0.0 -0.0025002642 0.0
000240 00 00 00 00 00 00 00 00 dd 11 ad bd 00 00 00 00
       0.0 0.0 -0.08450673 0.0
000250 00 00 00 00 33 8c 6b bd 00 00 00 00 00 00 00 00
       0.0 -0.05750675 0.0 0.0
000260 fc dd 95 bd 00 00 00 00 ce 0b 81 bd 00 00 00 00
       -0.07317731 0.0 -0.0630108 0.0
000270 1a 9e 95 bd 00 00 00 00 00 00 00 00 c9 d1 d0 b8
       -0.07305546 0.0 0.0 -9.9572884e-05
000280 7d 5a 14 bd 28 0d 42 bd 67 8b 0a bd 97 28 7c bd
       -0.03621911 -0.047375828 -0.03382435 -0.061562147
000290 00 00 00 00 bc b3 15 b9 c6 10 ac bd d6 0a 48 bc
       0.0 -0.00014276704 -0.08401637 -0.012209615
0002a0 6b 9e 55 3d 56 53 c1 3b 40 58 b7 bd e1 19 db bd
       0.052153032 0.005899827 -0.08952379 -0.106982954
0002b0 e2 97 80 b8 94 36 1f bd 00 00 00 00 85 95 fa b9
       -6.131806e-05 -0.03887041 0.0 -0.00047795117
0002c0 a6 2e 39 3d 00 00 00 00 ed 95 9d bd 63 80 3d bd
       0.045210503 0.0 -0.07694612 -0.046265017
0002d0 a5 55 af bd 3c 85 89 bd 00 00 00 00 ae 73 1e 3d
       -0.08561257 -0.067148656 0.0 0.03868454
0002e0 d4 d3 23 b9 0a 4d bb bd 9b 6a c2 bd c5 de 44 bb
       -0.00015623803 -0.091455534 -0.0949299 -0.0030040008
0002f0 00 00 00 00 00 00 00 00 4c b4 1c bd 79 b9 5a bb
       0.0 0.0 -0.038257882 -0.003337471
000300 3c 67 40 bd 00 00 00 00 7c ba 45 3d e4 66 9d bc
       -0.046973452 0.0 0.04827355 -0.019214101
000310 00 00 00 00 25 f4 9d bd 00 00 00 00 44 35 c8 bd
       0.0 -0.077125825 0.0 -0.097757846
000320 00 00 00 00 ec 05 7d bd 38 55 0f bd 17 1c 8a bd
       0.0 -0.061773226 -0.03499338 -0.06743639
000330 14 7a b6 bd 8a 43 f5 bc c4 e9 85 bd d8 cb 5a bc
       -0.08910003 -0.029939432 -0.06538728 -0.013354264
000340 00 00 00 00 6b 21 bb bc af 85 94 bd 17 3b 23 bc
       0.0 -0.022843083 -0.072520606 -0.009962819
000350 0e 1c 8f bd 00 00 00 00 42 29 37 bd ff 5a e8 b9
       -0.06987773 0.0 -0.04471708 -0.00044318286
000360 07 ef 75 bd f7 52 ce bb 00 00 00 00 4f 20 92 bd
       -0.060042407 -0.0062965113 0.0 -0.071350686
000370 00 00 00 00 00 00 00 00 cb 59 80 bb b7 01 78 bd
       0.0 0.0 -0.003916954 -0.06054851
000380 e1 a9 ba bd 1a eb 85 bc ca c0 9a bd 00 00 00 00
       -0.09114433 -0.016347457 -0.07556303 0.0
000390 ed 7a 00 bd 1b e0 b4 bd e4 b1 51 b9 52 74 75 3d
       -0.03136723 -0.08831807 -0.00019998063 0.059925385
0003a0 00 00 00 00 9d 30 8e bc 57 82 61 bb 1f 3f 1b bd
       0.0 -0.017357165 -0.0034409964 -0.037901994
0003b0 91 0a 0e bc 77 d0 76 bd 00 00 00 00 7c 35 46 bc
       -0.008669511 -0.0602574 0.0 -0.012097713
0003c0 22 dd 5d bd 89 a0 32 bb af fb a5 bd 00 00 00 00
       -0.054165967 -0.002725633 -0.081046455 0.0
0003d0 19 24 87 bd 77 7f 31 bd 8b 16 e5 3d 6c 80 56 3a
       -0.06598682 -0.04333445 0.1118594 0.00081825885
0003e0 dd ab 94 bd 00 ab c9 bc e0 95 f8 bb b0 07 02 bd
       -0.07259343 -0.024617672 -0.007586226 -0.031745613
0003f0 25 81 23 bd 8e 92 bf bd e8 6d eb 3d ba b8 13 bd
       -0.039918084 -0.09354125 0.11495572 -0.03606484

W0__862 f4 [1, 400, 100]
000000 68 2c 07 be 0b da a4 3d 30 dd 21 3e 48 22 14 3d
       -0.13200533 0.08049401 0.15807033 0.036165506
000010 eb 51 a6 3c 08 59 d5 3d 4c 8f b3 bd d5 e0 05 be
       0.020302733 0.10417372 -0.08767566 -0.13074048
000020 18 1f 96 bd 0a 32 1d 3d e9 af ff 3b c1 92 bf bc
       -0.073301494 0.0383778 0.0078029525 -0.023385407
000030 3c 67 ba bd 95 c1 ee 3b 3b 0f 80 bd 2f e3 7d 3e
       -0.09101722 0.0072862604 -0.06252905 0.24793695
000040 3c dc d4 bd a4 62 16 3e 39 61 8f 3c 95 56 4c 3c
       -0.10393569 0.14686066 0.017502414 0.012471815
000050 15 68 fe bd a8 06 ce 3d 8e d7 29 bd f1 7e de bd
       -0.12422196 0.10059863 -0.041465335 -0.10864056
000060 91 59 2b 3e 3b cd d9 bd 6d 5f 6f 3d 9a b2 d2 bc
       0.16733386 -0.10634848 0.058440614 -0.02571993
000070 dc 9a 9c bd 73 ed 2f be 85 95 1f 3d 36 de a1 bd
       -0.076467246 -0.17180423 0.038960952 -0.079037115
000080 61 0a c4 bd 69 2a ba bd be 46 25 be d3 5a 4e bb
       -0.09572292 -0.0909012 -0.16140267 -0.003148724
000090 1e 6f a0 bc 2e 48 dd bd 4a 72 42 3d 86 2a 49 3a
       -0.019584235 -0.10804783 0.047472276 0.0007673878
0000a0 3d f3 9e 3d 5f 44 58 bd 94 b5 49 bc 64 97 98 3b
       0.07761238 -0.05279958 -0.012311358 0.004656719
0000b0 68 8b 31 bc 22 96 91 3d 4f 59 fb 3d 06 56 87 bd
       -0.01083646 0.07108714 0.12272894 -0.066082045
0000c0 8e 1f 96 bd f3 49 4a 3e b8 91 e6 bd ad 0b a4 3d
       -0.07330237 0.19754772 -0.112582624 0.080100395
0000d0 f5 66 37 3d 98 91 89 bd 11 b3 5e 3d d6 2e 8d bd
       0.04477592 -0.06717223 0.05436999 -0.06893699
0000e0 7a 29 05 be f0 cd 14 be a7 a9 40 be 43 86 72 3d
       -0.13004103 -0.14531684 -0.18814717 0.059210073
0000f0 a1 1d 27 3e 8a 92 2d 3e 1c 6c 15 3e a0 b9 19 bd
       0.16319896 0.16950431 0.14592022 -0.03753054
000100 11 2b 51 bd 09 ff 38 be 3b 1c a3 3d 72 e9 25 be
       -0.051066462 -0.18066038 0.07964369 -0.16202334
000110 32 8d 70 3c 95 ab 1d be 81 2f 44 3c 33 52 dc 3d
       0.014682101 -0.15397485 0.011974216 0.10757866
000120 07 f7 96 bc b6 55 f6 bc 31 ad 26 bd 09 b4 93 bc
       -0.018428339 -0.030070167 -0.040692512 -0.018030183
000130 7d 49 54 3d 19 12 97 bd 80 12 17 3e 91 8b c0 bd
       0.051827896 -0.07376499 0.14753151 -0.0940162
000140 bc d9 ae bd 89 00 14 be 96 9a 93 3c f9 51 fa 3d
       -0.08537623 -0.14453329 0.018018048 0.12222666
000150 e3 f1 19 3e b5 56 0c bd e3 aa 94 bd 6f 53 ae 3c
       0.15033679 -0.034262378 -0.072591566 0.021280019
000160 66 b0 69 3d c3 64 9f bd 3f 80 d0 3d 49 48 fc bc
       0.057052992 -0.07782891 0.10180711 -0.030796187
000170 ea 17 89 bd e9 f6 85 bb 6f 06 a0 bd 69 77 f8 bd
       -0.06694014 -0.004088272 -0.07813727 -0.12132151
000180 34 3f 84 3d 41 43 f9 bc 9b ae 78 3d 41 05 d6 3d
       0.064573675 -0.030427577 0.06071339 0.10450221
000190 17 31 84 bd 22 2a 15 3e 5b 13 28 3c b2 f0 57 bb
       -0.06454676 0.14566854 0.010258521 -0.0032949862
0001a0 36 69 12 3d e1 1d 40 bd 2f 76 b2 bc 48 78 01 bc
       0.03574487 -0.046903495 -0.02178487 -0.007902212
0001b0 7a 06 bc 3b 22 32 a6 3d 29 87 6e 3e 11 f2 d0 bd
       0.0057380768 0.08115031 0.23293747 -0.102024205
0001c0 6c 93 a5 bd 10 bf ab bd 95 c1 90 be 97 67 63 3e
       -0.08084759 -0.08386052 -0.2827269 0.22207485
0001d0 5e 72 b4 3c 15 2e 0b 3e 2b e4 47 bd 91 9a 4f 3d
       0.02202719 0.13591798 -0.048801582 0.050684515
0001e0 d4 f3 a4 bd 33 0c 9f 3d ca ba b0 3a af 7d 3d 3d
       -0.08054319 0.07765999 0.0013483402 0.04626244
0001f0 cf b0 62 3d c9 38 b7 bd 79 92 59 3c 4f 26 be bd
       0.0553444 -0.08946378 0.013279551 -0.092846505
000200 35 b7 06 bd 0a 2e f3 bd aa 52 e9 3c 62 30 9d bd
       -0.032889564 -0.11874016 0.0284818 -0.07675244
000210 a8 82 4b bd da 05 ed bc 02 ce 26 bc 87 37 6f 3c
       -0.04968515 -0.028933454 -0.010180952 0.014600641
000220 ea 16 ca bd 32 44 52 be f7 de 32 3c ac 02 ce bd
       -0.09867652 -0.20533827 0.010917417 -0.10059103
000230 89 83 1b 3d ac 15 52 be 5c 1c a7 bd f2 e2 6f bc
       0.03796724 -0.2051608 -0.08159706 -0.01464151
000240 5d ad 84 bc 57 54 e7 3d 2e 99 cc 3c b7 9b 6c 3c
       -0.016195947 0.112953834 0.024975386 0.014441422
000250 0a 6a 92 bd 66 a7 48 3e 83 21 0e be a9 38 3a 3d
       -0.071491316 0.19595107 -0.13879971 0.04546419
000260 f2 64 5b 3d ca d7 60 3d 97 b1 08 3c 72 98 23 be
       0.053563066 0.054893292 0.008343122 -0.15976122
000270 3a 72 98 3d 4f 35 ab 3d 05 ef 80 be 73 03 bf 38
       0.07443662 0.08359777 -0.25182357 9.108232e-05
000280 b4 3e 57 3d 77 4d ea 3d ea d7 a2 3d b7 08 45 bb
       0.052550033 0.114405565 0.079513386 -0.003006501
000290 41 f1 63 bd 33 cc d5 bd 6a 4e e6 bd 9a 19 4c bd
       -0.05565 -0.104393385 -0.11245425 -0.049829103
0002a0 6f 8d 04 bd d7 2e ec bd f6 93 29 3d d7 ea 5c 3e
       -0.032361444 -0.115323715 0.041400872 0.2157396
0002b0 ac 10 8a bd 70 61 23 3d 91 92 1f bd 4b be 18 3d
       -0.06741461 0.039887846 -0.038958136 0.037290853
0002c0 aa a9 06 3d a3 3b a2 bc 1f ca f2 3d 15 5e 51 bd
       0.032876648 -0.019803828 0.11854958 -0.051115114
0002d0 b4 06 07 3d 22 96 27 be 0b 9a 5e be b5 f7 9f 3d
       0.032965377 -0.16365865 -0.2173845 0.07810918
0002e0 b8 dc 20 3e f2 a7 09 3e 75 f2 9d 3c 54 d6 cc 3d
       0.15709198 0.13442972 0.019280652 0.10001817
0002f0 c5 fe a6 3d 4a 17 9a 3d 4d 29 b3 3d 87 71 b7 3d
       0.08154062 0.07523973 0.08748112 0.089572005
000300 10 69 13 3e ae 47 27 bd c2 a2 b4 bd d2 3c 1e bc
       0.14395547 -0.040839843 -0.08820106 -0.009658055
000310 d0 77 b9 bd 93 8f dc 3c 31 8d 17 bd 4b 97 0a bd
       -0.090560555 0.02692393 -0.036999885 -0.03383569
000320 43 74 fb bd 57 66 ae 3c f9 f7 6e bd 20 5b 86 3d
       -0.122780345 0.021289034 -0.058341954 0.065603495
000330 7b 88 92 bc 36 01 d8 bc 1a ff ac 3d 46 0d 1b bd
       -0.017887345 -0.026367765 0.08447094 -0.037854455
000340 8f d0 0d 3e 48 63 fa 3d 2a b6 01 3e b6 8e 00 be
       0.1384909 0.12225968 0.12667146 -0.1255444
000350 8a 2d 39 3c 57 0f 3a bd 1c dd dc bc b9 66 6b 3e
       0.011302361 -0.045424785 -0.026960902 0.22988404
000360 77 dd ad 3d 48 65 b4 3b 93 9a 9d 3d 12 12 85 3b
       0.08489507 0.0055052377 0.07695498 0.004060992
000370 c8 4d 83 bb 93 eb d2 bc 8a cb f5 bd 45 3c 23 3d
       -0.004007075 -0.025747096 -0.120017126 0.0398524
000380 c9 b0 bc 3d a3 9d 91 3c 55 4d d2 bb e7 a1 f0 bd
       0.092134066 0.017775362 -0.00641791 -0.117496304
000390 d8 06 49 be c6 0f 91 bc 27 b6 6c bb d0 4d f4 bd
       -0.19631517 -0.017707717 -0.0036119313 -0.11928904
0003a0 a7 48 9a bc d8 0c eb bd 06 5e 43 bd 2e 4a 82 3b
       -0.018833471 -0.11477059 -0.04769709 0.003976128
0003b0 6e 87 79 3a 1e 7e 03 be fc 59 09 3d 51 bf 9f bd
       0.0009518777 -0.12841079 0.03353308 -0.078001626
0003c0 a6 a1 8f 3c 77 a4 bb 3c 4e c8 2a be 1a 59 1a 3c
       0.017533135 0.022905571 -0.16677973 0.0094206575
0003d0 34 ab 23 3d 99 ee e2 bc 68 84 72 bd 1e eb 91 bd
       0.039958194 -0.027701663 -0.059208304 -0.07124923
0003e0 8a 0b 2e bd 5b 99 76 3e d6 8d 28 be 52 c7 00 bd
       -0.042491473 0.24081938 -0.16460356 -0.031440087
0003f0 da 72 9d bc d7 2a eb 3d a7 e7 ac 3d 30 af 37 3c
       -0.019219805 0.114827804 0.08442622 0.011211202

W0__841 f4 [1, 400, 256]
000000 f8 ef d0 3c 4d 80 36 3d 5d 99 91 3d b0 ed fc bc
       0.025505051 0.04455595 0.0710933 -0.030875057
000010 f0 98 97 3d 14 9d b3 3c 8e 32 9d bb 25 a7 2e 3e
       0.074022174 0.021925487 -0.0047972864 0.17055948
000020 ef e0 0e 3d 65 83 8e 3e 74 0f 1e 3d 60 c2 b8 3b
       0.034882482 0.2783462 0.038588956 0.0056384057
000030 49 00 8a 3d 63 19 b7 3d a8 98 c0 bd c1 b0 b0 3d
       0.06738336 0.08940389 -0.09404117 0.08627463
000040 01 26 81 3d 4e 08 69 bc e0 98 ac 3e 04 51 ee 3c
       0.06306077 -0.014223171 0.33710384 0.029091366
000050 7e 3d 70 3d de 12 82 b9 67 8b ec ba 5b 27 07 bd
       0.058652394 -0.0002480959 -0.0018046916 -0.032996517
000060 ea a6 13 3d 84 98 b5 3d 51 19 24 bd 0e cf 17 bc
       0.036047854 0.08866981 -0.040063206 -0.009265674
000070 13 43 7c bd 18 3c 51 3c ae 06 75 3e 94 9e 8e 3d
       -0.061587404 0.012770675 0.2392833 0.0696384
000080 83 ca 8a 3e c6 8c 53 3d af 0b 21 3e 3e 38 22 bd
       0.2710763 0.051647924 0.15727113 -0.039604418
000090 5e 96 2a bd 6b 1b 30 3e 99 25 8d 3e 24 a5 04 3e
       -0.041647308 0.17197959 0.27567747 0.12953621
0000a0 cb e7 aa 3d 56 87 30 bd 20 30 1e 3c 40 c7 43 3b
       0.08344992 -0.043097816 0.009655029 0.00298734
0000b0 3a 68 98 bd c3 49 28 bd ec cd 7a 3d d5 f8 0b 3d
       -0.07441755 -0.04108597 0.06123154 0.03417285
0000c0 0c 68 b2 3d 4e a3 f1 3c f4 43 af 3d 1e 3b b5 3c
       0.087112516 0.029496815 0.08557883 0.022122916
0000d0 33 db 3d 3c ac 10 98 bd 78 82 22 bc 48 ab 88 bd
       0.011587906 -0.07425055 -0.0099188015 -0.06673294
0000e0 14 5c 23 3d 86 a4 2f bd ec c9 d1 bc 04 1c 8b 3c
       0.039882734 -0.04288151 -0.02560898 0.016981132
0000f0 92 b4 0b 3d 6d ac 45 bc f2 e7 75 3d 0e d9 82 3e
       0.034107752 -0.012065035 0.060035653 0.25556225
000100 18 99 28 3d ba d2 6f 3e b2 2e 04 3e 6b 3a 32 3d
       0.041161627 0.2342023 0.12908438 0.043512743
000110 9a de 10 3e 28 06 7a 3e b0 e8 fd 3d df 7f 91 3d
       0.14147416 0.24416411 0.12397897 0.071044676
000120 f4 8d c0 bd 00 21 8d 3d c2 d8 6c 3c 35 d0 a1 3d
       -0.094020754 0.0689106 0.014455976 0.079010405
000130 11 66 01 3e b7 1b db 3d 57 34 47 3d 8b 81 24 3e
       0.12636591 0.106986456 0.0486339 0.16065042
000140 2d d5 f1 3d 39 d3 4f bb 70 05 15 bd 78 ba c4 3c
       0.11808238 -0.0031711592 -0.03638214 0.024014696
000150 c8 74 a7 bc dc 5e b8 3c 00 18 aa bd b7 66 b8 3d
       -0.020441428 0.02250617 -0.08305359 0.09003966
000160 b8 90 19 3c c3 74 9f bc fb d7 38 3d 11 7a ba 3d
       0.009372883 -0.019464856 0.04512785 0.091053136
000170 ae 2d e3 3b d6 9d a9 3d f7 1f 93 bd 61 0f d5 3d
       0.0069329357 0.08282058 -0.07183831 0.10403324
000180 f6 25 8a 3e e9 37 82 bd 2c 44 39 bd 68 30 ee bc
       0.26982087 -0.0635832 -0.04523103 -0.029075816
000190 0c e4 8d bc 83 8f 12 3d aa 88 66 3c 0e 3b 49 3d
       -0.017320655 0.035781395 0.014070669 0.049128585
0001a0 76 9e 0c 3d fe 5f 83 bb 54 96 77 3d 13 0b 57 3e
       0.034330808 -0.004009246 0.0604461 0.21000318
0001b0 37 2d 85 bc 3f 9a 91 bd dc 16 ea 3d 4c a3 b3 bc
       -0.016256912 -0.07109498 0.11430141 -0.021928452
0001c0 49 ae 51 bd 57 80 8d 3d e3 20 9b 3d ce 37 2d bd
       -0.051191602 0.069092445 0.07574632 -0.042289548
0001d0 1f b4 5d 3d e2 9f c1 3c 8b 87 31 3e aa c9 3c 3d
       0.054126855 0.023635808 0.17336862 0.04609076
0001e0 78 2a 7b 3d 15 a0 84 3d de c5 96 bd 09 cb 94 3d
       0.0613198 0.06475846 -0.07361959 0.072652884
0001f0 70 b7 01 bd 66 77 62 3d a4 5c 1b 3e 5c 19 98 3c
       -0.03166908 0.05528965 0.15172058 0.01856678
000200 b4 d1 af 3c af bd d3 3d f0 98 91 3c 6a ca 0f 3d
       0.021462299 0.10338914 0.017773122 0.035105146
000210 dc 5f ad 3c 74 a3 3a bd 2e 88 7c bc 71 95 9e bb
       0.021163873 -0.045566037 -0.015413327 -0.004839592
000220 46 10 20 3d a6 49 61 3d 5f 0b c7 3c 7a 08 bb 3c
       0.03907802 0.055001877 0.024297414 0.02283119
000230 40 f6 4f 3c 20 5e bd 3b ec 2a 0f bd 88 b9 77 3c
       0.012692988 0.005779043 -0.034953043 0.015119918
000240 dd d0 7b bd 92 d6 0b 3d 5b b8 37 b9 2f 89 08 bd
       -0.061478484 0.034140177 -0.00017520918 -0.033333953
000250 0e d2 16 3d cb 6a fb 3d 56 0b 36 3d 25 c1 b8 bd
       0.036821418 0.122762285 0.044444405 -0.090212144
000260 fa 38 13 3e 94 b2 70 bd 48 8d ef 3d 76 32 97 bd
       0.14377204 -0.058764055 0.11696869 -0.073826715
000270 d1 da 19 3e 0e 1d 21 3d 95 39 9f bd 18 96 de bc
       0.15024878 0.03933435 -0.07774655 -0.02717118
000280 4f 14 3f 3e ab 8f 27 3e fa 5e ce 3d c7 37 b1 bc
       0.18660091 0.16363399 0.10076709 -0.021633042
000290 a8 aa de 3c 50 72 94 3c cc b6 1e 3e 7e ad a2 bd
       0.027180985 0.018120915 0.15499419 -0.07943247
0002a0 12 09 ac 3d fc 06 5a bd 6b 75 66 3d 2c 2f 82 3e
       0.084001675 -0.053229317 0.056264322 0.25426614
0002b0 d4 03 fa 3c 42 89 93 3e ea 4b 1f 3d a6 fd 62 3d
       0.030519404 0.28815657 0.038890757 0.05541768
0002c0 19 3a ad 3c 1f 22 28 bd 83 64 78 bc 43 8e 5d 3d
       0.021145867 -0.041048165 -0.015160683 0.05409075
0002d0 ac 1c 9c bc 64 32 30 3d 81 ab 19 bd b4 68 82 3d
       -0.01905664 0.043016806 -0.037517074 0.06367627
0002e0 7d 34 34 bd 6c d1 1a 3e 76 99 12 3d be c2 b1 bd
       -0.04399537 0.1511895 0.035790883 -0.08679722
0002f0 cd 5d 19 bd f0 ce 82 3c 1e 3c 75 3e a0 1c 4b bc
       -0.03744297 0.015967816 0.23948714 -0.012396961
000300 b2 70 7c 3d 8c 81 fd 3c d0 56 c4 3c ce 19 35 bd
       0.061630912 0.030945562 0.023967177 -0.044214062
000310 b4 28 ee 3c ae b0 a0 3d 18 e5 75 bc 74 b7 e3 3d
       0.029072143 0.07846199 -0.0150082335 0.11118975
000320 45 ed 38 bd 7e fe 26 3d 9b 03 39 3e ff 79 91 3c
       -0.045148153 0.040770046 0.18067782 0.017758368
000330 b0 a8 8b 39 64 3c 54 3e 15 63 83 3d 25 dc ad 3d
       0.00026637828 0.20726162 0.06415383 0.08489255
000340 70 20 84 bc 15 65 57 3d 97 1f 03 3e 8c 52 d8 3d
       -0.016128749 0.052586634 0.1280502 0.105626196
000350 14 ac 07 bc 60 da 3d bc dc 42 e2 bc 77 1f fa bc
       -0.008280773 -0.011587709 -0.027619772 -0.030532582
000360 f8 13 41 bd f2 7e 74 bc 88 67 3d bc 81 e8 20 3c
       -0.047138184 -0.014922844 -0.011560328 0.009821058
000370 33 45 a0 bd a0 88 69 3b 42 92 6b 3d c0 48 0d bd
       -0.07825699 0.0035634413 0.05751253 -0.034493208
000380 c7 e5 1c 3e 3d 6f 10 3c 74 ac 1e 3e 34 2a 80 bc
       0.15322028 0.008815584 0.15495473 -0.015645124
000390 e9 28 f7 3d cf 79 78 3e 40 fc 62 bc 0c 75 84 bc
       0.1206835 0.24265216 -0.013854086 -0.016169094
0003a0 42 9d 22 3d 3a 25 cb 3d b4 62 a7 bd e0 5a 71 3d
       0.039700754 0.0991921 -0.08173123 0.058924556
0003b0 55 6e 6d bd 1f 54 9c 3d 65 cb 90 3d 7c 02 7d bc
       -0.05796655 0.07633232 0.070700444 -0.015442487
0003c0 ff d6 06 3e 48 d4 3f bc fb 90 0a 3e e0 df 85 3c
       0.13167952 -0.011708327 0.13531868 0.016342103
0003d0 5f b6 45 3d 28 46 92 3c 18 cb 80 3d 89 67 45 3d
       0.048269626 0.017855719 0.06288737 0.048194442
0003e0 4f c3 c4 3d d4 55 7b 3c a5 24 0b 3d 5b d3 36 3c
       0.09607565 0.015340287 0.033970494 0.0111587895
0003f0 78 b0 49 3b 5c 4e f1 3d c8 bd 83 3e a5 0a 2a bd
       0.003077535 0.11782524 0.2573073 -0.041514058

R0__863 f4 [1, 400, 100]
000000 3d 46 2d 3d 02 6a 86 3b b0 5e 81 3d cc 10 69 bc
       0.042303313 0.0041019926 0.06316888 -0.014225196
000010 eb 7c 83 3d 7e b4 3c 3d 1d d8 89 bc 27 40 14 bd
       0.064203106 0.04607057 -0.016826684 -0.036193993
000020 76 2a 5a 3d 29 96 2f 3c f1 80 a7 bd bb c5 14 bc
       0.05326315 0.010716953 -0.081788905 -0.009080346
000030 7b eb 7a 3d 42 f4 b0 3b 25 14 0c bc 74 03 81 bc
       0.061259728 0.0054002116 -0.008549725 -0.015748717
000040 ce 84 27 bd ef 2e 3d bd 3b 84 1e bd 7f 6d 1a bd
       -0.040898137 -0.046187337 -0.038700324 -0.03770208
000050 04 15 9f 3c a5 63 84 3c 66 90 ff 3b 96 b5 cf 3c
       0.0194192 0.016160795 0.007799196 0.025355142
000060 5a 99 30 3d 25 63 d2 3c ee 05 ff bd b7 aa 67 bc
       0.043114997 0.025682041 -0.12452303 -0.014139823
000070 95 b1 45 bd bf fd 43 3d c7 0d 1a bc 32 cb a2 3d
       -0.04826506 0.047849413 -0.009402699 0.07948913
000080 00 23 b5 bd 53 40 82 bc 8d a7 df 3c 20 42 7d 3a
       -0.08844566 -0.015899813 0.027301574 0.00096610375
000090 bf a0 13 be 42 d9 7e 3d 77 8e a3 3c c0 eb b4 bc
       -0.14416789 0.062218912 0.019965393 -0.02208507
0000a0 57 08 95 3c f8 66 6c bd a5 62 29 3d e9 34 3f bd
       0.018192453 -0.057715386 0.04135384 -0.04668132
0000b0 2d ee 20 bd 53 1d 9a 3c b1 b2 ea 3c ab bc 91 bd
       -0.039289642 0.018812811 0.02864966 -0.07116064
0000c0 b4 e8 cd 3d 6d 45 ac bd b7 f8 8b 3d c1 1a 87 3d
       0.1005415 -0.084116794 0.06834548 0.065969
0000d0 c9 09 1e 3d bd 99 9a bd 37 07 2a 3d e6 6e cb 3b
       0.03858355 -0.075488545 0.041510787 0.0062082885
0000e0 17 10 8b 3c c0 7e 48 3b 7b ef de bc 39 fa 90 3c
       0.016975446 0.0030593127 -0.027213803 0.01769744
0000f0 72 18 ac 3d 21 8b a3 3c 42 bb e9 3c e7 2b 85 bd
       0.084031 0.019963803 0.028531674 -0.06502514
000100 0c fc 6b 3c 26 1e 6b bc 2e 51 ca bd 8b b2 db bc
       0.014403354 -0.01435045 -0.09878765 -0.026818534
000110 b8 ad 05 bc f1 fb d1 3d 55 41 19 bb 21 0d da ba
       -0.008159094 0.10253132 -0.0023384888 -0.0016635993
000120 2d c0 41 bd 7d 6c 87 3d 0b 3a f0 ba c7 51 b6 3c
       -0.047302414 0.06612489 -0.0018327845 0.022255791
000130 51 de 10 bd b3 38 f9 3c b0 f0 8e bd 7f 2b 65 bd
       -0.035368267 0.030422544 -0.06979501 -0.055949684
000140 b0 2e c1 bc 15 88 f0 bc 4a 2a 40 3c 02 be 94 3c
       -0.023581833 -0.029361764 0.0117288325 0.018157009
000150 6c fa ad 3d 54 1d 97 bd 7c b2 b7 3d 79 66 0a 3c
       0.0849503 -0.07378641 0.0896959 0.008447283
000160 1c 52 98 3d ab 5a 4c 3d 17 23 08 be 08 13 17 3d
       0.07437536 0.049891155 -0.13294636 0.036883384
000170 4d 27 f3 3c d2 56 53 bd 1c b3 cc bc 46 75 8f bc
       0.029681826 -0.05159647 -0.02498775 -0.017511975
000180 5e 35 d8 ba b3 42 df 3d b7 08 2e bd c6 ca 76 bd
       -0.0016495397 0.10901394 -0.04248878 -0.060251974
000190 dd bc 81 bd a8 a1 48 bc 8f 54 19 3e fa 9f 88 bd
       -0.06334851 -0.012245573 0.14973663 -0.06671138
0001a0 55 ab 22 3d a0 40 0e 3e ba 5b 04 bd 31 c9 39 3b
       0.039714176 0.1389184 -0.03231404 0.002834868
0001b0 93 1f 5d 3c 2c ab 7b bd 31 73 cd 3c 21 af 5d 3d
       0.013496297 -0.06144254 0.025079342 0.054122094
0001c0 8c 98 9f bb ef e0 b1 3d 6c 62 3b bc 3d 29 95 bd
       -0.00487048 0.08685481 -0.01143704 -0.07283256
0001d0 10 59 84 bd 9c c0 6e bd 09 01 d8 3d 56 d7 5d bd
       -0.064623 -0.058289155 0.105470724 -0.05416044
0001e0 a5 d9 08 be 9a b8 13 3d 0a 2d f3 bb 11 2d bf 3d
       -0.13364275 0.03606472 -0.0074211406 0.093347676
0001f0 2d 43 cb 3d 26 35 55 bd 2c 75 a1 bd 8c 6c d5 bc
       0.09924922 -0.05205264 -0.07883677 -0.026052736
000200 6d 81 32 3c 3a 30 cd 3d 47 f0 5e 3d b6 6c 82 bd
       0.010895115 0.10018964 0.054428365 -0.06368391
000210 e5 8a 41 3d 20 17 a9 bd ad 73 b7 bd 91 cd 2e bd
       0.0472516 -0.08256364 -0.0895761 -0.042676512
000220 1e 87 9f 3c 93 3b 19 3d f0 53 62 bd 60 2f 98 bd
       0.019473609 0.03741033 -0.05525583 -0.07430911
000230 ae c7 b0 bd b6 71 db 3d 5d 48 9a 3b 16 6a 19 3d
       -0.08631836 0.10715048 0.0047083334 0.037454687
000240 be e8 ad 3d 3d 34 80 3b 4e b5 84 3d 4c c2 88 3c
       0.08491658 0.0039124773 0.064798936 0.01669421
000250 32 44 11 3e e4 33 56 3c 95 85 1d bd 36 74 89 bd
       0.1418617 0.013073895 -0.038457472 -0.067116186
000260 d9 11 88 bc 9c 49 dc bd cb 93 b0 bd 2d fa 9d 3c
       -0.016610073 -0.107562274 -0.08621939 0.019284332
000270 85 83 2a 3d 31 a1 15 3c 7c ca 9a bb ed 99 6e 3d
       0.041629333 0.009132669 -0.004723845 0.058252264
000280 86 df 96 bd ab ff eb 3b 0e 16 1b 3c c4 e8 5c bd
       -0.073668525 0.007202109 0.0094657075 -0.05393292
000290 3c 85 e9 3b 8a 11 5c bc ea 8d 9a 3d ab 10 a9 bc
       0.0071264785 -0.013431916 0.07546599 -0.02063783
0002a0 62 27 ba 3b e7 3a b7 3c 42 ae 0b bd 56 3a 95 3c
       0.0056809643 0.022366954 -0.034101732 0.018216293
0002b0 24 1d fb bd 35 be fd 3c b8 d7 bf bc 4e f2 e0 3d
       -0.122614175 0.030974487 -0.023418292 0.10983716
0002c0 88 fc 73 3c 9f a4 a3 bd 26 a8 74 bd 07 9a a4 3d
       0.014891751 -0.07990383 -0.05973067 0.08037191
0002d0 a4 1e c7 3d c8 81 63 bd 50 a4 08 bd 49 94 d9 3c
       0.09722641 -0.05554369 -0.033359826 0.026559966
0002e0 a6 57 83 bc 74 68 9a bd 82 b4 17 bd d7 c9 95 3d
       -0.016033005 -0.07539454 -0.03703738 0.073138885
0002f0 25 b1 a8 bc bd a7 84 3d 73 b9 62 3c ab 92 ad bd
       -0.020592282 0.06477306 0.01383816 -0.0847524
000300 7e 1f 01 3e 4e 91 f1 bd 37 b6 63 3d 30 70 52 3d
       0.1260967 -0.11795293 0.055593695 0.05137652
000310 3b e8 dd 3c 53 29 35 3b f8 d1 6e bd 13 37 c3 3c
       0.027088275 0.002764304 -0.05830571 0.023829972
000320 cc 24 88 bd ae 38 fb bd e6 ef 0f 3c a4 7f a8 3c
       -0.066476434 -0.1226667 0.008785224 0.020568676
000330 f8 03 ee 3c c9 9e 02 3c c7 8c bc bc 2e 6e 0e bd
       0.029054627 0.007972428 -0.023016347 -0.034773044
000340 41 37 9b 3c b4 af 88 bd ff 8f a0 bd 7e e8 1a bc
       0.018947246 -0.06674138 -0.07839965 -0.0094548445
000350 fd 4e 50 3b 5b 53 37 bd 52 79 6d 3d b3 a6 a7 bd
       0.0031785362 -0.04475723 0.05797703 -0.08186092
000360 e9 a5 0c 3d c2 9b aa 3b 7d d7 19 bd d5 bd 30 3d
       0.03433791 0.005206556 -0.03755902 0.043149788
000370 d9 01 ab bd 31 d8 3c bd db b2 0e bd a4 49 d0 3d
       -0.08349962 -0.046104614 -0.03483854 0.10170296
000380 7a e7 9d 3d 4b 60 6a 3d 50 9e 3b 3d e1 70 91 3c
       0.07710166 0.05722074 0.045805275 0.01775402
000390 97 48 6c bd 0f 79 17 3d bf 19 b8 bb 02 79 a5 3c
       -0.057686415 0.036980685 -0.0056183035 0.020199303
0003a0 c2 b0 3b 3d 68 52 b4 bd 81 fa 5f 3d 32 70 8c 3c
       0.045822866 -0.0880478 0.05468226 0.017143343
0003b0 29 10 02 3b 4b 1e df 3c 1f ad a9 3c f7 3f d0 3d
       0.0019846058 0.027236125 0.020712433 0.1016845
0003c0 6c 2a c8 bd e9 c4 94 3d 1b 27 bc bc f0 99 e3 3c
       -0.09773716 0.0726412 -0.022967866 0.027783364
0003d0 2a 6f a5 3d c5 35 12 bd 71 3c 27 bd cf 45 c5 bd
       0.080778435 -0.03569581 -0.040829126 -0.096324556
0003e0 5d d6 4c bd 11 ee c9 bd af c0 a1 bc 34 d0 80 bd
       -0.05000912 -0.09859861 -0.019745199 -0.062897116
0003f0 68 da 51 bd c2 78 1f bd 5a 87 a0 3c b4 19 3a 3c
       -0.05123368 -0.038933523 0.01959579 0.011358667

R0__842 f4 [1, 400, 100]
000000 26 f7 3b 3d 28 35 d9 bb 21 73 4f 3c bd f3 59 bd
       0.045889996 -0.006628651 0.012661726 -0.053210963
000010 80 90 a5 3c 81 3c d4 3c 88 19 1b bc da ce 84 3c
       0.020210505 0.025907757 -0.009466536 0.016211916
000020 70 d6 08 3c 37 48 2e bd d0 52 a3 3d 97 8b 77 3d
       0.008351907 -0.04254934 0.079747796 0.060435858
000030 56 76 51 3d 17 4c c0 3d 88 15 3c 3d 71 60 b0 bd
       0.051138245 0.09389513 0.04591897 -0.08612145
000040 55 21 0d bd ec 44 03 3d f7 9b e8 bc 98 d9 11 3c
       -0.034455616 0.03204815 -0.028394682 0.008901976
000050 2e 25 9f bd 3b 00 79 3c c4 b4 53 3d 6e 59 09 3d
       -0.07770763 0.015197809 0.051686063 0.033532552
000060 de d3 0f 3b b5 3a 55 bd f5 a8 cf bb 10 52 a2 bd
       0.002194635 -0.05205794 -0.00633728 -0.079258084
000070 fc bf 90 bc c9 1a 44 bd e7 e1 3a bd 36 25 a2 3d
       -0.01766967 -0.047877107 -0.045625594 0.07917254
000080 35 f6 ba bd 67 c3 0a bd 9e bc 18 be 98 ee c5 bc
       -0.091289915 -0.033877756 -0.14915702 -0.024161622
000090 24 1d 90 bd 1d f1 0d be 58 67 67 3c ce 3f a5 3b
       -0.07036808 -0.13861509 0.01412376 0.0050430065
0000a0 40 69 0d bd b1 12 d7 39 4f 00 66 bd 0b d7 5a 3d
       -0.034524202 0.00041021922 -0.056152638 0.053427737
0000b0 d0 27 9d 3d 3e 7b 8f 3d 26 6b b0 3c e5 04 27 bd
       0.07673609 0.070059285 0.021535467 -0.040776152
0000c0 d8 c2 e7 3c 2c 15 03 3e a7 f3 1e bd 42 26 2e bd
       0.02829115 0.12801045 -0.038806584 -0.042516954
0000d0 d0 62 71 bd 7f d5 25 bb cf f1 b0 bd 6b 95 db 3d
       -0.058932126 -0.0025304256 -0.08639871 0.107218586
0000e0 22 36 d4 3d d6 5f 9e 3d fd 54 57 bd 1f 46 76 3d
       0.103618875 0.07733123 -0.052571286 0.060125466
0000f0 fe 2b 71 bc ad 15 dc ba a3 bc 8b 3d f4 3d bb 3d
       -0.014719961 -0.0016791128 0.06823089 0.09142676
000100 db ee be 3b ba 6b f0 3c 0b 34 31 bd e3 cc 07 3c
       0.0058268136 0.029348243 -0.043262523 0.008288595
000110 80 93 a3 3d 04 a5 d4 3c 8e cd af 3d da 45 b1 3c
       0.07987118 0.025957592 0.08584128 0.021639753
000120 34 42 15 3a 07 c3 d5 3d f4 45 e9 bc f0 63 34 3c
       0.0005693764 0.10437589 -0.028475739 0.011010155
000130 6f 4f 2d 3d ef f1 41 3d 08 a6 39 bc 83 cc de bd
       0.042312082 0.047349866 -0.011331089 -0.10878851
000140 f2 47 91 3c 0b b3 a6 3d cf 93 8f bd 45 e3 a9 3c
       0.017734502 0.081396185 -0.07010614 0.020738253
000150 4b e9 21 3e 7b 6c af 3c 28 b8 2e 3d 36 b8 13 3c
       0.1581165 0.021414032 0.042656094 0.009016087
000160 55 2f 38 bd 91 69 91 3d 28 3d d4 3a 72 59 92 3c
       -0.044967014 0.07100213 0.0016192542 0.017864916
000170 ba 2a 93 3d 75 fc c1 bb a5 39 8d 3b fc 16 f8 3d
       0.07185884 -0.005919988 0.0043098503 0.12113759
000180 19 c7 dc 3a 2a 93 c2 3c 76 aa 8c ba 03 76 c0 3d
       0.0016844004 0.023751814 -0.0010731954 0.09397509
000190 c7 f5 87 bc 38 bc f3 bc b0 26 15 3d 5a af 0e 3e
       -0.016596688 -0.029752836 0.03641385 0.13934079
0001a0 47 a3 01 3e 21 cb 91 3d e2 4c 13 3b 48 79 d3 3c
       0.12659942 0.07118822 0.0022476246 0.025814667
0001b0 bf 62 35 bd c1 1f 9c 3c ca 64 e8 3d 59 ea b8 3c
       -0.044283625 0.01905811 0.11347349 0.022572683
0001c0 38 24 93 bd 81 4c 4c 3d 6e 7c f8 bc 2a 56 b4 3d
       -0.071846426 0.049877647 -0.03033277 0.08805497
0001d0 eb 8a f7 bd f9 e8 b3 3d 7d 13 6a bd 93 d6 c4 3c
       -0.120870434 0.087846704 -0.05714749 0.024028098
0001e0 0d f6 9c bd e9 ea be bb 9d 83 c8 bc 3e d2 a5 bd
       -0.07664118 -0.0058263433 -0.02447682 -0.08096741
0001f0 de 8d ab 3c e1 ab f6 3c 8f 2a c7 bd 3e 2c 54 bd
       0.020941671 0.030111255 -0.09724914 -0.051800005
000200 55 59 ed bc 39 38 d9 bd 71 2e 84 3d 96 d1 a5 bd
       -0.02897326 -0.10606427 0.064541705 -0.08096616
000210 0f 6c c8 bd 2a 2a 9a bd 12 73 0d be 0c 2c 43 bb
       -0.097862355 -0.075275734 -0.13813427 -0.0029780893
000220 56 54 5f 3d 2c 4b 46 be 35 8c 77 3d e7 b1 7b 3b
       0.05452379 -0.19364613 0.060436446 0.0038405599
000230 7f b9 a5 3d c0 47 81 bc a9 3d 83 bd 1d 85 0c be
       0.08092021 -0.015781283 -0.06408245 -0.13722654
000240 00 40 e4 3d de 86 91 bc de db 92 3d cf 29 9f bd
       0.111450195 -0.017764505 0.071708426 -0.07771646
000250 df 52 ee bd c2 11 10 3e 10 2c eb bc 59 10 49 3d
       -0.116369 0.14069274 -0.028707534 0.049087856
000260 0e 15 9a 3d a7 b2 60 3d 3d 55 f5 bc de 26 6e 3d
       0.07523547 0.054857876 -0.029947871 0.058142535
000270 2d 74 c5 bc ac 3b b5 bd 37 0d fa bd 64 86 9f bd
       -0.024103248 -0.08849272 -0.12209552 -0.07789305
000280 b4 8a ea 3c 3a c8 38 bc 00 f1 53 3e d6 6e 51 bb
       0.028630592 -0.0112782065 0.20697403 -0.0031956933
000290 87 42 32 bc dc fb 04 3e 32 5e f8 3c 2d 2d 83 bd
       -0.010880119 0.12986702 0.030318353 -0.06405101
0002a0 d3 1c ed bc 6b 4e 09 3d f0 15 6c bd d5 75 81 3d
       -0.028944409 0.03352205 -0.05763811 0.06321303
0002b0 0b 94 37 3b f5 4c 21 3d 2f 7a a1 3c 4f 6b 4a 3c
       0.0028011824 0.039380033 0.019711582 0.012354686
0002c0 6e 94 1d 3d 07 4c 28 3c 8b 3d df 3c 44 cd d0 bd
       0.03847163 0.010272033 0.027251026 -0.10195401
0002d0 fc b7 88 3d e6 5a 78 bd 5c 2b 3b 3c 86 eb 7e 3d
       0.06675717 -0.060633563 0.011423912 0.06223633
0002e0 43 88 d9 3d 03 4c a7 bc f3 46 05 bd c4 1e 25 3d
       0.10621693 -0.020421987 -0.032538366 0.040312544
0002f0 fc b6 a1 bd 1c 7f 46 bb b8 6e da bc 98 34 d9 3c
       -0.078962296 -0.0030288165 -0.026664123 0.026514336
000300 9c a9 23 3d 8c a5 90 3d 37 50 b0 bd 44 df 87 3c
       0.039956674 0.070628256 -0.0860905 0.016585954
000310 52 12 68 3d d2 0f a9 3d e9 b6 98 3c c7 82 ca 3d
       0.056658097 0.082549706 0.018641906 0.09888225
000320 72 cf c4 3b c1 68 d1 bd e1 00 94 3c 02 86 ae bc
       0.0060061747 -0.10225058 0.018066825 -0.021304134
000330 79 1d f3 3b fd e2 6a bd 8d df ca 3d c7 a3 82 bd
       0.007419285 -0.05734538 0.0990592 -0.06378894
000340 1c b2 ef 3c dd eb d3 bd 6b c1 a1 bd 71 59 33 3d
       0.029259734 -0.10347722 -0.0789822 0.04378647
000350 c0 4b 76 3d c7 5c 90 3c e2 37 19 3e da d9 6d 3d
       0.060130835 0.017622365 0.14962724 0.058069088
000360 2e 92 49 bc 61 90 c5 bd 73 02 aa bd 04 d7 f7 bd
       -0.012302918 -0.09646679 -0.083012484 -0.12101558
000370 8c c4 35 3d c4 38 8c bd ca 31 d9 ba 9f c5 42 bd
       0.044376895 -0.06846765 -0.0016570624 -0.047551747
000380 26 c4 76 bd 6f 5b 8d bc ab f4 5e 3c 86 89 12 bd
       -0.060245655 -0.017255513 0.013608138 -0.035775684
000390 1b 8b dc bc 3a 18 33 3d 8c cc a0 bb ae b7 bb 3d
       -0.0269218 0.043724276 -0.0049071964 0.091658935
0003a0 ef 10 b4 bd 5a 46 89 3c b8 48 ae 3c 46 f9 f4 3c
       -0.08792292 0.016757179 0.02127491 0.02990402
0003b0 79 6b 3b bc ca be a9 3d f8 c6 b7 bd 50 38 ef 3d
       -0.011439198 0.08288343 -0.08973497 0.11680663
0003c0 72 84 d7 3b de 4c 0b 3d 06 dc e3 bc 39 2c dc 3d
       0.006577068 0.034008853 -0.027814876 0.10750622
0003d0 02 57 c6 bc 04 99 f1 3c d6 5b 37 bd de 2e a9 3d
       -0.02421141 0.029491909 -0.044765316 0.08260892
0003e0 de 83 08 3d ec 5c 16 be 2b c3 33 3e 21 c0 d2 3c
       0.033328883 -0.14683884 0.1755492 0.02572638
0003f0 de 1d b2 bc 1d ed 37 3d e2 62 a0 bc 5c 7f 2e bc
       -0.021742757 0.044903863 -0.019578401 -0.010650482
